…
snapshot_prefix: "vgg16_faster_rcnn"
average_loss: 100
iter_size: 2
I0601 18:04:24.186619 18518 solver.cpp:81] Creating training net from train_net file: models/caltech/VGG16/faster_rcnn_end2end/train.prototxt
I0601 18:04:24.187793 18518 net.cpp:49] Initializing net from parameters: 
name: "VGG_ILSVRC_16_layers"
state {
  phase: TRAIN
}
layer {
  name: "input-data"
  type: "Python"
  top: "data"
  top: "im_info"
  top: "gt_boxes"
  python_param {
    module: "roi_data_layer.layer"
    layer: "RoIDataLayer"
    param_str: "\'num_classes\': 2"
  }
}
layer {
  name: "conv1_1"
  type: "Convolution"
  bottom: "data"
  top: "conv1_1"
  param {
    lr_mult: 0
    decay_mult: 0
  }
  param {
    lr_mult: 0
    decay_mult: 0
  }
  convolution_param {
    num_output: 64
    pad: 1
    kernel_size: 3
  }
}
layer {
  name: "relu1_1"
  type: "ReLU"
  bottom: "conv1_1"
  top: "conv1_1"
}
layer {
  name: "conv1_2"
  type: "Convolution"
  bottom: "conv1_1"
  top: "conv1_2"
  param {
    lr_mult: 0
    decay_mult: 0
  }
  param {
    lr_mult: 0
    decay_mult: 0
  }
  convolution_param {
    num_output: 64
    pad: 1
    kernel_size: 3
  }
}
layer {
  name: "relu1_2"
  type: "ReLU"
  bottom: "conv1_2"
  top: "conv1_2"
}
layer {
  name: "pool1"
  type: "Pooling"
  bottom: "conv1_2"
  top: "pool1"
  pooling_param {
    pool: MAX
    kernel_size: 2
    stride: 2
  }
}
layer {
  name: "conv2_1"
  type: "Convolution"
  bottom: "pool1"
  top: "conv2_1"
  param {
    lr_mult: 0
    decay_mult: 0
  }
  param {
    lr_mult: 0
    decay_mult: 0
  }
  convolution_param {
    num_output: 128
    pad: 1
    kernel_size: 3
  }
}
layer {
  name: "relu2_1"
  type: "ReLU"
  bottom: "conv2_1"
  top: "conv2_1"
}
layer {
  name: "conv2_2"
  type: "Convolution"
  bottom: "conv2_1"
  top: "conv2_2"
  param {
    lr_mult: 0
    decay_mult: 0
  }
  param {
    lr_mult: 0
    decay_mult: 0
  }
  convolution_param {
    num_output: 128
    pad: 1
    kernel_size: 3
  }
}
layer {
  name: "relu2_2"
  type: "ReLU"
  bottom: "conv2_2"
  top: "conv2_2"
}
layer {
  name: "pool2"
  type: "Pooling"
  bottom: "conv2_2"
  top: "pool2"
  pooling_param {
    pool: MAX
    kernel_size: 2
    stride: 2
  }
}
layer {
  name: "conv3_1"
  type: "Convolution"
  bottom: "pool2"
  top: "conv3_1"
  param {
    lr_mult: 1
  }
  param {
    lr_mult: 2
  }
  convolution_param {
    num_output: 256
    pad: 1
    kernel_size: 3
  }
}
layer {
  name: "relu3_1"
  type: "ReLU"
  bottom: "conv3_1"
  top: "conv3_1"
}
layer {
  name: "conv3_2"
  type: "Convolution"
  bottom: "conv3_1"
  top: "conv3_2"
  param {
    lr_mult: 1
  }
  param {
    lr_mult: 2
  }
  convolution_param {
    num_output: 256
    pad: 1
    kernel_size: 3
  }
}
layer {
  name: "relu3_2"
  type: "ReLU"
  bottom: "conv3_2"
  top: "conv3_2"
}
layer {
  name: "conv3_3"
  type: "Convolution"
  bottom: "conv3_2"
  top: "conv3_3"
  param {
    lr_mult: 1
  }
  param {
    lr_mult: 2
  }
  convolution_param {
    num_output: 256
    pad: 1
    kernel_size: 3
  }
}
layer {
  name: "relu3_3"
  type: "ReLU"
  bottom: "conv3_3"
  top: "conv3_3"
}
layer {
  name: "pool3"
  type: "Pooling"
  bottom: "conv3_3"
  top: "pool3"
  pooling_param {
    pool: MAX
    kernel_size: 2
    stride: 2
  }
}
layer {
  name: "conv4_1"
  type: "Convolution"
  bottom: "pool3"
  top: "conv4_1"
  param {
    lr_mult: 1
  }
  param {
    lr_mult: 2
  }
  convolution_param {
    num_output: 512
    pad: 1
    kernel_size: 3
  }
}
layer {
  name: "relu4_1"
  type: "ReLU"
  bottom: "conv4_1"
  top: "conv4_1"
}
layer {
  name: "conv4_2"
  type: "Convolution"
  bottom: "conv4_1"
  top: "conv4_2"
  param {
    lr_mult: 1
  }
  param {
    lr_mult: 2
  }
  convolution_param {
    num_output: 512
    pad: 1
    kernel_size: 3
  }
}
layer {
  name: "relu4_2"
  type: "ReLU"
  bottom: "conv4_2"
  top: "conv4_2"
}
layer {
  name: "conv4_3"
  type: "Convolution"
  bottom: "conv4_2"
  top: "conv4_3"
  param {
    lr_mult: 1
  }
  param {
    lr_mult: 2
  }
  convolution_param {
    num_output: 512
    pad: 1
    kernel_size: 3
  }
}
layer {
  name: "relu4_3"
  type: "ReLU"
  bottom: "conv4_3"
  top: "conv4_3"
}
layer {
  name: "pool4"
  type: "Pooling"
  bottom: "conv4_3"
  top: "pool4"
  pooling_param {
    pool: MAX
    kernel_size: 2
    stride: 2
  }
}
layer {
  name: "conv5_1"
  type: "Convolution"
  bottom: "pool4"
  top: "conv5_1"
  param {
    lr_mult: 1
  }
  param {
    lr_mult: 2
  }
  convolution_param {
    num_output: 512
    pad: 1
    kernel_size: 3
  }
}
layer {
  name: "relu5_1"
  type: "ReLU"
  bottom: "conv5_1"
  top: "conv5_1"
}
layer {
  name: "conv5_2"
  type: "Convolution"
  bottom: "conv5_1"
  top: "conv5_2"
  param {
    lr_mult: 1
  }
  param {
    lr_mult: 2
  }
  convolution_param {
    num_output: 512
    pad: 1
    kernel_size: 3
  }
}
layer {
  name: "relu5_2"
  type: "ReLU"
  bottom: "conv5_2"
  top: "conv5_2"
}
layer {
  name: "conv5_3"
  type: "Convolution"
  bottom: "conv5_2"
  top: "conv5_3"
  param {
    lr_mult: 1
  }
  param {
    lr_mult: 2
  }
  convolution_param {
    num_output: 512
    pad: 1
    kernel_size: 3
  }
}
layer {
  name: "relu5_3"
  type: "ReLU"
  bottom: "conv5_3"
  top: "conv5_3"
}
layer {
  name: "rpn_conv/3x3"
  type: "Convolution"
  bottom: "conv5_3"
  top: "rpn/output"
  param {
    lr_mult: 1
  }
  param {
    lr_mult: 2
  }
  convolution_param {
    num_output: 512
    pad: 1
    kernel_size: 3
    stride: 1
    weight_filler {
      type: "gaussian"
      std: 0.01
    }
    bias_filler {
      type: "constant"
      value: 0
    }
  }
}
layer {
  name: "rpn_relu/3x3"
  type: "ReLU"
  bottom: "rpn/output"
  top: "rpn/output"
}
layer {
  name: "rpn_cls_score"
  type: "Convolution"
  bottom: "rpn/output"
  top: "rpn_cls_score"
  param {
    lr_mult: 1
  }
  param {
    lr_mult: 2
  }
  convolution_param {
    num_output: 18
    pad: 0
    kernel_size: 1
    stride: 1
    weight_filler {
      type: "gaussian"
      std: 0.01
    }
    bias_filler {
      type: "constant"
      value: 0
    }
  }
}
layer {
  name: "rpn_bbox_pred"
  type: "Convolution"
  bottom: "rpn/output"
  top: "rpn_bbox_pred"
  param {
    lr_mult: 1
  }
  param {
    lr_mult: 2
  }
  convolution_param {
    num_output: 36
    pad: 0
    kernel_size: 1
    stride: 1
    weight_filler {
      type: "gaussian"
      std: 0.01
    }
    bias_filler {
      type: "constant"
      value: 0
    }
  }
}
layer {
  name: "rpn_cls_score_reshape"
  type: "Reshape"
  bottom: "rpn_cls_score"
  top: "rpn_cls_score_reshape"
  reshape_param {
    shape {
      dim: 0
      dim: 2
      dim: -1
      dim: 0
    }
  }
}
layer {
  name: "rpn-data"
  type: "Python"
  bottom: "rpn_cls_score"
  bottom: "gt_boxes"
  bottom: "im_info"
  bottom: "data"
  top: "rpn_labels"
  top: "rpn_bbox_targets"
  top: "rpn_bbox_inside_weights"
  top: "rpn_bbox_outside_weights"
  python_param {
    module: "rpn.anchor_target_layer"
    layer: "AnchorTargetLayer"
    param_str: "\'feat_stride\': 16"
  }
}
layer {
  name: "rpn_loss_cls"
  type: "SoftmaxWithLoss"
  bottom: "rpn_cls_score_reshape"
  bottom: "rpn_labels"
  top: "rpn_cls_loss"
  loss_weight: 1
  propagate_down: true
  propagate_down: false
  loss_param {
    ignore_label: -1
    normalize: true
  }
}
layer {
  name: "rpn_loss_bbox"
  type: "SmoothL1Loss"
  bottom: "rpn_bbox_pred"
  bottom: "rpn_bbox_targets"
  bottom: "rpn_bbox_inside_weights"
  bottom: "rpn_bbox_outside_weights"
  top: "rpn_loss_bbox"
  loss_weight: 1
  smooth_l1_loss_param {
    sigma: 3
  }
}
layer {
  name: "rpn_cls_prob"
  type: "Softmax"
  bottom: "rpn_cls_score_reshape"
  top: "rpn_cls_prob"
}
layer {
  name: "rpn_cls_prob_reshape"
  type: "Reshape"
  bottom: "rpn_cls_prob"
  top: "rpn_cls_prob_reshape"
  reshape_param {
    shape {
      dim: 0
      dim: 18
      dim: -1
      dim: 0
    }
  }
}
layer {
  name: "proposal"
  type: "Python"
  bottom: "rpn_cls_prob_reshape"
  bottom: "rpn_bbox_pred"
  bottom: "im_info"
  top: "rpn_rois"
  python_param {
    module: "rpn.proposal_layer"
    layer: "ProposalLayer"
    param_str: "\'feat_stride\': 16"
  }
}
layer {
  name: "roi-data"
  type: "Python"
  bottom: "rpn_rois"
  bottom: "gt_boxes"
  top: "rois"
  top: "labels"
  top: "bbox_targets"
  top: "bbox_inside_weights"
  top: "bbox_outside_weights"
  python_param {
    module: "rpn.proposal_target_layer"
    layer: "ProposalTargetLayer"
    param_str: "\'num_classes\': 2"
  }
}
layer {
  name: "roi_pool5"
  type: "ROIPooling"
  bottom: "conv5_3"
  bottom: "rois"
  top: "pool5"
  roi_pooling_param {
    pooled_h: 7
    pooled_w: 7
    spatial_scale: 0.0625
  }
}
layer {
  name: "fc6"
  type: "InnerProduct"
  bottom: "pool5"
  top: "fc6"
  param {
    lr_mult: 1
  }
  param {
    lr_mult: 2
  }
  inner_product_param {
    num_output: 4096
  }
}
layer {
  name: "relu6"
  type: "ReLU"
  bottom: "fc6"
  top: "fc6"
}
layer {
  name: "drop6"
  type: "Dropout"
  bottom: "fc6"
  top: "fc6"
  dropout_param {
    dropout_ratio: 0.5
  }
}
layer {
  name: "fc7"
  type: "InnerProduct"
  bottom: "fc6"
  top: "fc7"
  param {
    lr_mult: 1
  }
  param {
    lr_mult: 2
  }
  inner_product_param {
    num_output: 4096
  }
}
layer {
  name: "relu7"
  type: "ReLU"
  bottom: "fc7"
  top: "fc7"
}
layer {
  name: "drop7"
  type: "Dropout"
  bottom: "fc7"
  top: "fc7"
  dropout_param {
    dropout_ratio: 0.5
  }
}
layer {
  name: "new_cls_score"
  type: "InnerProduct"
  bottom: "fc7"
  top: "new_cls_score"
  param {
    lr_mult: 1
  }
  param {
    lr_mult: 2
  }
  inner_product_param {
    num_output: 2
    weight_filler {
      type: "gaussian"
      std: 0.01
    }
    bias_filler {
      type: "constant"
      value: 0
    }
  }
}
layer {
  name: "new_bbox_pred"
  type: "InnerProduct"
  bottom: "fc7"
  top: "new_bbox_pred"
  param {
    lr_mult: 1
  }
  param {
    lr_mult: 2
  }
  inner_product_param {
    num_output: 8
    weight_filler {
      type: "gaussian"
      std: 0.001
    }
    bias_filler {
      type: "constant"
      value: 0
    }
  }
}
layer {
  name: "loss_cls"
  type: "SoftmaxWithLoss"
  bottom: "new_cls_score"
  bottom: "labels"
  top: "loss_cls"
  loss_weight: 1
  propagate_down: true
  propagate_down: false
}
layer {
  name: "loss_bbox"
  type: "SmoothL1Loss"
  bottom: "new_bbox_pred"
  bottom: "bbox_targets"
  bottom: "bbox_inside_weights"
  bottom: "bbox_outside_weights"
  top: "loss_bbox"
  loss_weight: 1
}
I0601 18:04:24.188099 18518 layer_factory.hpp:77] Creating layer input-data
I0601 18:04:24.190274 18518 net.cpp:106] Creating Layer input-data
I0601 18:04:24.190287 18518 net.cpp:411] input-data -> data
I0601 18:04:24.190313 18518 net.cpp:411] input-data -> im_info
I0601 18:04:24.190320 18518 net.cpp:411] input-data -> gt_boxes
RoiDataLayer: name_to_top: {'gt_boxes': 2, 'data': 0, 'im_info': 1}
I0601 18:04:24.265148 18518 net.cpp:150] Setting up input-data
I0601 18:04:24.265170 18518 net.cpp:157] Top shape: 1 3 600 1000 (1800000)
I0601 18:04:24.265175 18518 net.cpp:157] Top shape: 1 3 (3)
I0601 18:04:24.265179 18518 net.cpp:157] Top shape: 1 4 (4)
I0601 18:04:24.265183 18518 net.cpp:165] Memory required for data: 7200028
I0601 18:04:24.265188 18518 layer_factory.hpp:77] Creating layer data_input-data_0_split
I0601 18:04:24.265202 18518 net.cpp:106] Creating Layer data_input-data_0_split
I0601 18:04:24.265208 18518 net.cpp:454] data_input-data_0_split <- data
I0601 18:04:24.265214 18518 net.cpp:411] data_input-data_0_split -> data_input-data_0_split_0
I0601 18:04:24.265223 18518 net.cpp:411] data_input-data_0_split -> data_input-data_0_split_1
I0601 18:04:24.265261 18518 net.cpp:150] Setting up data_input-data_0_split
I0601 18:04:24.265269 18518 net.cpp:157] Top shape: 1 3 600 1000 (1800000)
I0601 18:04:24.265274 18518 net.cpp:157] Top shape: 1 3 600 1000 (1800000)
I0601 18:04:24.265277 18518 net.cpp:165] Memory required for data: 21600028
I0601 18:04:24.265280 18518 layer_factory.hpp:77] Creating layer im_info_input-data_1_split
I0601 18:04:24.265286 18518 net.cpp:106] Creating Layer im_info_input-data_1_split
I0601 18:04:24.265290 18518 net.cpp:454] im_info_input-data_1_split <- im_info
I0601 18:04:24.265295 18518 net.cpp:411] im_info_input-data_1_split -> im_info_input-data_1_split_0
I0601 18:04:24.265300 18518 net.cpp:411] im_info_input-data_1_split -> im_info_input-data_1_split_1
I0601 18:04:24.265328 18518 net.cpp:150] Setting up im_info_input-data_1_split
I0601 18:04:24.265334 18518 net.cpp:157] Top shape: 1 3 (3)
I0601 18:04:24.265339 18518 net.cpp:157] Top shape: 1 3 (3)
I0601 18:04:24.265342 18518 net.cpp:165] Memory required for data: 21600052
I0601 18:04:24.265345 18518 layer_factory.hpp:77] Creating layer gt_boxes_input-data_2_split
I0601 18:04:24.265352 18518 net.cpp:106] Creating Layer gt_boxes_input-data_2_split
I0601 18:04:24.265354 18518 net.cpp:454] gt_boxes_input-data_2_split <- gt_boxes
I0601 18:04:24.265359 18518 net.cpp:411] gt_boxes_input-data_2_split -> gt_boxes_input-data_2_split_0
I0601 18:04:24.265365 18518 net.cpp:411] gt_boxes_input-data_2_split -> gt_boxes_input-data_2_split_1
I0601 18:04:24.265391 18518 net.cpp:150] Setting up gt_boxes_input-data_2_split
I0601 18:04:24.265398 18518 net.cpp:157] Top shape: 1 4 (4)
I0601 18:04:24.265403 18518 net.cpp:157] Top shape: 1 4 (4)
I0601 18:04:24.265405 18518 net.cpp:165] Memory required for data: 21600084
I0601 18:04:24.265408 18518 layer_factory.hpp:77] Creating layer conv1_1
I0601 18:04:24.265419 18518 net.cpp:106] Creating Layer conv1_1
I0601 18:04:24.265421 18518 net.cpp:454] conv1_1 <- data_input-data_0_split_0
I0601 18:04:24.265426 18518 net.cpp:411] conv1_1 -> conv1_1
I0601 18:04:24.268313 18518 net.cpp:150] Setting up conv1_1
I0601 18:04:24.268343 18518 net.cpp:157] Top shape: 1 64 600 1000 (38400000)
I0601 18:04:24.268347 18518 net.cpp:165] Memory required for data: 175200084
I0601 18:04:24.268359 18518 layer_factory.hpp:77] Creating layer relu1_1
I0601 18:04:24.268366 18518 net.cpp:106] Creating Layer relu1_1
I0601 18:04:24.268370 18518 net.cpp:454] relu1_1 <- conv1_1
I0601 18:04:24.268376 18518 net.cpp:397] relu1_1 -> conv1_1 (in-place)
I0601 18:04:24.268404 18518 net.cpp:150] Setting up relu1_1
I0601 18:04:24.268409 18518 net.cpp:157] Top shape: 1 64 600 1000 (38400000)
I0601 18:04:24.268411 18518 net.cpp:165] Memory required for data: 328800084
I0601 18:04:24.268430 18518 layer_factory.hpp:77] Creating layer conv1_2
I0601 18:04:24.268438 18518 net.cpp:106] Creating Layer conv1_2
I0601 18:04:24.268442 18518 net.cpp:454] conv1_2 <- conv1_1
I0601 18:04:24.268448 18518 net.cpp:411] conv1_2 -> conv1_2
I0601 18:04:24.271848 18518 net.cpp:150] Setting up conv1_2
I0601 18:04:24.271883 18518 net.cpp:157] Top shape: 1 64 600 1000 (38400000)
I0601 18:04:24.271888 18518 net.cpp:165] Memory required for data: 482400084
I0601 18:04:24.271898 18518 layer_factory.hpp:77] Creating layer relu1_2
I0601 18:04:24.271905 18518 net.cpp:106] Creating Layer relu1_2
I0601 18:04:24.271910 18518 net.cpp:454] relu1_2 <- conv1_2
I0601 18:04:24.271915 18518 net.cpp:397] relu1_2 -> conv1_2 (in-place)
I0601 18:04:24.271939 18518 net.cpp:150] Setting up relu1_2
I0601 18:04:24.271944 18518 net.cpp:157] Top shape: 1 64 600 1000 (38400000)
I0601 18:04:24.271947 18518 net.cpp:165] Memory required for data: 636000084
I0601 18:04:24.271966 18518 layer_factory.hpp:77] Creating layer pool1
I0601 18:04:24.271981 18518 net.cpp:106] Creating Layer pool1
I0601 18:04:24.271986 18518 net.cpp:454] pool1 <- conv1_2
I0601 18:04:24.271991 18518 net.cpp:411] pool1 -> pool1
I0601 18:04:24.272045 18518 net.cpp:150] Setting up pool1
I0601 18:04:24.272053 18518 net.cpp:157] Top shape: 1 64 300 500 (9600000)
I0601 18:04:24.272058 18518 net.cpp:165] Memory required for data: 674400084
I0601 18:04:24.272060 18518 layer_factory.hpp:77] Creating layer conv2_1
I0601 18:04:24.272069 18518 net.cpp:106] Creating Layer conv2_1
I0601 18:04:24.272073 18518 net.cpp:454] conv2_1 <- pool1
I0601 18:04:24.272078 18518 net.cpp:411] conv2_1 -> conv2_1
I0601 18:04:24.273555 18518 net.cpp:150] Setting up conv2_1
I0601 18:04:24.273584 18518 net.cpp:157] Top shape: 1 128 300 500 (19200000)
I0601 18:04:24.273588 18518 net.cpp:165] Memory required for data: 751200084
I0601 18:04:24.273599 18518 layer_factory.hpp:77] Creating layer relu2_1
I0601 18:04:24.273607 18518 net.cpp:106] Creating Layer relu2_1
I0601 18:04:24.273610 18518 net.cpp:454] relu2_1 <- conv2_1
I0601 18:04:24.273615 18518 net.cpp:397] relu2_1 -> conv2_1 (in-place)
I0601 18:04:24.273638 18518 net.cpp:150] Setting up relu2_1
I0601 18:04:24.273643 18518 net.cpp:157] Top shape: 1 128 300 500 (19200000)
I0601 18:04:24.273645 18518 net.cpp:165] Memory required for data: 828000084
I0601 18:04:24.273648 18518 layer_factory.hpp:77] Creating layer conv2_2
I0601 18:04:24.273656 18518 net.cpp:106] Creating Layer conv2_2
I0601 18:04:24.273675 18518 net.cpp:454] conv2_2 <- conv2_1
I0601 18:04:24.273681 18518 net.cpp:411] conv2_2 -> conv2_2
I0601 18:04:24.274188 18518 net.cpp:150] Setting up conv2_2
I0601 18:04:24.274197 18518 net.cpp:157] Top shape: 1 128 300 500 (19200000)
I0601 18:04:24.274215 18518 net.cpp:165] Memory required for data: 904800084
I0601 18:04:24.274221 18518 layer_factory.hpp:77] Creating layer relu2_2
I0601 18:04:24.274226 18518 net.cpp:106] Creating Layer relu2_2
I0601 18:04:24.274230 18518 net.cpp:454] relu2_2 <- conv2_2
I0601 18:04:24.274235 18518 net.cpp:397] relu2_2 -> conv2_2 (in-place)
I0601 18:04:24.274240 18518 net.cpp:150] Setting up relu2_2
I0601 18:04:24.274245 18518 net.cpp:157] Top shape: 1 128 300 500 (19200000)
I0601 18:04:24.274247 18518 net.cpp:165] Memory required for data: 981600084
I0601 18:04:24.274266 18518 layer_factory.hpp:77] Creating layer pool2
I0601 18:04:24.274273 18518 net.cpp:106] Creating Layer pool2
I0601 18:04:24.274292 18518 net.cpp:454] pool2 <- conv2_2
I0601 18:04:24.274297 18518 net.cpp:411] pool2 -> pool2
I0601 18:04:24.274333 18518 net.cpp:150] Setting up pool2
I0601 18:04:24.274339 18518 net.cpp:157] Top shape: 1 128 150 250 (4800000)
I0601 18:04:24.274343 18518 net.cpp:165] Memory required for data: 1000800084
I0601 18:04:24.274346 18518 layer_factory.hpp:77] Creating layer conv3_1
I0601 18:04:24.274354 18518 net.cpp:106] Creating Layer conv3_1
I0601 18:04:24.274358 18518 net.cpp:454] conv3_1 <- pool2
I0601 18:04:24.274363 18518 net.cpp:411] conv3_1 -> conv3_1
I0601 18:04:24.275832 18518 net.cpp:150] Setting up conv3_1
I0601 18:04:24.275861 18518 net.cpp:157] Top shape: 1 256 150 250 (9600000)
I0601 18:04:24.275866 18518 net.cpp:165] Memory required for data: 1039200084
I0601 18:04:24.275874 18518 layer_factory.hpp:77] Creating layer relu3_1
I0601 18:04:24.275882 18518 net.cpp:106] Creating Layer relu3_1
I0601 18:04:24.275887 18518 net.cpp:454] relu3_1 <- conv3_1
I0601 18:04:24.275892 18518 net.cpp:397] relu3_1 -> conv3_1 (in-place)
I0601 18:04:24.275898 18518 net.cpp:150] Setting up relu3_1
I0601 18:04:24.275918 18518 net.cpp:157] Top shape: 1 256 150 250 (9600000)
I0601 18:04:24.275921 18518 net.cpp:165] Memory required for data: 1077600084
I0601 18:04:24.275924 18518 layer_factory.hpp:77] Creating layer conv3_2
I0601 18:04:24.275950 18518 net.cpp:106] Creating Layer conv3_2
I0601 18:04:24.275954 18518 net.cpp:454] conv3_2 <- conv3_1
I0601 18:04:24.275961 18518 net.cpp:411] conv3_2 -> conv3_2
I0601 18:04:24.277664 18518 net.cpp:150] Setting up conv3_2
I0601 18:04:24.277678 18518 net.cpp:157] Top shape: 1 256 150 250 (9600000)
I0601 18:04:24.277698 18518 net.cpp:165] Memory required for data: 1116000084
I0601 18:04:24.277704 18518 layer_factory.hpp:77] Creating layer relu3_2
I0601 18:04:24.277710 18518 net.cpp:106] Creating Layer relu3_2
I0601 18:04:24.277714 18518 net.cpp:454] relu3_2 <- conv3_2
I0601 18:04:24.277719 18518 net.cpp:397] relu3_2 -> conv3_2 (in-place)
I0601 18:04:24.277725 18518 net.cpp:150] Setting up relu3_2
I0601 18:04:24.277745 18518 net.cpp:157] Top shape: 1 256 150 250 (9600000)
I0601 18:04:24.277748 18518 net.cpp:165] Memory required for data: 1154400084
I0601 18:04:24.277752 18518 layer_factory.hpp:77] Creating layer conv3_3
I0601 18:04:24.277760 18518 net.cpp:106] Creating Layer conv3_3
I0601 18:04:24.277762 18518 net.cpp:454] conv3_3 <- conv3_2
I0601 18:04:24.277768 18518 net.cpp:411] conv3_3 -> conv3_3
I0601 18:04:24.280134 18518 net.cpp:150] Setting up conv3_3
I0601 18:04:24.280156 18518 net.cpp:157] Top shape: 1 256 150 250 (9600000)
I0601 18:04:24.280175 18518 net.cpp:165] Memory required for data: 1192800084
I0601 18:04:24.280181 18518 layer_factory.hpp:77] Creating layer relu3_3
I0601 18:04:24.280187 18518 net.cpp:106] Creating Layer relu3_3
I0601 18:04:24.280191 18518 net.cpp:454] relu3_3 <- conv3_3
I0601 18:04:24.280197 18518 net.cpp:397] relu3_3 -> conv3_3 (in-place)
I0601 18:04:24.280203 18518 net.cpp:150] Setting up relu3_3
I0601 18:04:24.280223 18518 net.cpp:157] Top shape: 1 256 150 250 (9600000)
I0601 18:04:24.280226 18518 net.cpp:165] Memory required for data: 1231200084
I0601 18:04:24.280230 18518 layer_factory.hpp:77] Creating layer pool3
I0601 18:04:24.280236 18518 net.cpp:106] Creating Layer pool3
I0601 18:04:24.280241 18518 net.cpp:454] pool3 <- conv3_3
I0601 18:04:24.280246 18518 net.cpp:411] pool3 -> pool3
I0601 18:04:24.280297 18518 net.cpp:150] Setting up pool3
I0601 18:04:24.280303 18518 net.cpp:157] Top shape: 1 256 75 125 (2400000)
I0601 18:04:24.280308 18518 net.cpp:165] Memory required for data: 1240800084
I0601 18:04:24.280310 18518 layer_factory.hpp:77] Creating layer conv4_1
I0601 18:04:24.280318 18518 net.cpp:106] Creating Layer conv4_1
I0601 18:04:24.280323 18518 net.cpp:454] conv4_1 <- pool3
I0601 18:04:24.280328 18518 net.cpp:411] conv4_1 -> conv4_1
I0601 18:04:24.285136 18518 net.cpp:150] Setting up conv4_1
I0601 18:04:24.285151 18518 net.cpp:157] Top shape: 1 512 75 125 (4800000)
I0601 18:04:24.285154 18518 net.cpp:165] Memory required for data: 1260000084
I0601 18:04:24.285161 18518 layer_factory.hpp:77] Creating layer relu4_1
I0601 18:04:24.285168 18518 net.cpp:106] Creating Layer relu4_1
I0601 18:04:24.285171 18518 net.cpp:454] relu4_1 <- conv4_1
I0601 18:04:24.285177 18518 net.cpp:397] relu4_1 -> conv4_1 (in-place)
I0601 18:04:24.285183 18518 net.cpp:150] Setting up relu4_1
I0601 18:04:24.285187 18518 net.cpp:157] Top shape: 1 512 75 125 (4800000)
I0601 18:04:24.285190 18518 net.cpp:165] Memory required for data: 1279200084
I0601 18:04:24.285193 18518 layer_factory.hpp:77] Creating layer conv4_2
I0601 18:04:24.285217 18518 net.cpp:106] Creating Layer conv4_2
I0601 18:04:24.285219 18518 net.cpp:454] conv4_2 <- conv4_1
I0601 18:04:24.285225 18518 net.cpp:411] conv4_2 -> conv4_2
I0601 18:04:24.290848 18518 net.cpp:150] Setting up conv4_2
I0601 18:04:24.290889 18518 net.cpp:157] Top shape: 1 512 75 125 (4800000)
I0601 18:04:24.290892 18518 net.cpp:165] Memory required for data: 1298400084
I0601 18:04:24.290905 18518 layer_factory.hpp:77] Creating layer relu4_2
I0601 18:04:24.290912 18518 net.cpp:106] Creating Layer relu4_2
I0601 18:04:24.290916 18518 net.cpp:454] relu4_2 <- conv4_2
I0601 18:04:24.290922 18518 net.cpp:397] relu4_2 -> conv4_2 (in-place)
I0601 18:04:24.290946 18518 net.cpp:150] Setting up relu4_2
I0601 18:04:24.290949 18518 net.cpp:157] Top shape: 1 512 75 125 (4800000)
I0601 18:04:24.290953 18518 net.cpp:165] Memory required for data: 1317600084
I0601 18:04:24.290956 18518 layer_factory.hpp:77] Creating layer conv4_3
I0601 18:04:24.290964 18518 net.cpp:106] Creating Layer conv4_3
I0601 18:04:24.290984 18518 net.cpp:454] conv4_3 <- conv4_2
I0601 18:04:24.291007 18518 net.cpp:411] conv4_3 -> conv4_3
I0601 18:04:24.296267 18518 net.cpp:150] Setting up conv4_3
I0601 18:04:24.296285 18518 net.cpp:157] Top shape: 1 512 75 125 (4800000)
I0601 18:04:24.296289 18518 net.cpp:165] Memory required for data: 1336800084
I0601 18:04:24.296296 18518 layer_factory.hpp:77] Creating layer relu4_3
I0601 18:04:24.296303 18518 net.cpp:106] Creating Layer relu4_3
I0601 18:04:24.296306 18518 net.cpp:454] relu4_3 <- conv4_3
I0601 18:04:24.296313 18518 net.cpp:397] relu4_3 -> conv4_3 (in-place)
I0601 18:04:24.296319 18518 net.cpp:150] Setting up relu4_3
I0601 18:04:24.296322 18518 net.cpp:157] Top shape: 1 512 75 125 (4800000)
I0601 18:04:24.296324 18518 net.cpp:165] Memory required for data: 1356000084
I0601 18:04:24.296327 18518 layer_factory.hpp:77] Creating layer pool4
I0601 18:04:24.296350 18518 net.cpp:106] Creating Layer pool4
I0601 18:04:24.296353 18518 net.cpp:454] pool4 <- conv4_3
I0601 18:04:24.296358 18518 net.cpp:411] pool4 -> pool4
I0601 18:04:24.296429 18518 net.cpp:150] Setting up pool4
I0601 18:04:24.296437 18518 net.cpp:157] Top shape: 1 512 38 63 (1225728)
I0601 18:04:24.296440 18518 net.cpp:165] Memory required for data: 1360902996
I0601 18:04:24.296443 18518 layer_factory.hpp:77] Creating layer conv5_1
I0601 18:04:24.296452 18518 net.cpp:106] Creating Layer conv5_1
I0601 18:04:24.296455 18518 net.cpp:454] conv5_1 <- pool4
I0601 18:04:24.296461 18518 net.cpp:411] conv5_1 -> conv5_1
I0601 18:04:24.301630 18518 net.cpp:150] Setting up conv5_1
I0601 18:04:24.301645 18518 net.cpp:157] Top shape: 1 512 38 63 (1225728)
I0601 18:04:24.301650 18518 net.cpp:165] Memory required for data: 1365805908
I0601 18:04:24.301656 18518 layer_factory.hpp:77] Creating layer relu5_1
I0601 18:04:24.301661 18518 net.cpp:106] Creating Layer relu5_1
I0601 18:04:24.301666 18518 net.cpp:454] relu5_1 <- conv5_1
I0601 18:04:24.301671 18518 net.cpp:397] relu5_1 -> conv5_1 (in-place)
I0601 18:04:24.301679 18518 net.cpp:150] Setting up relu5_1
I0601 18:04:24.301683 18518 net.cpp:157] Top shape: 1 512 38 63 (1225728)
I0601 18:04:24.301687 18518 net.cpp:165] Memory required for data: 1370708820
I0601 18:04:24.301689 18518 layer_factory.hpp:77] Creating layer conv5_2
I0601 18:04:24.301712 18518 net.cpp:106] Creating Layer conv5_2
I0601 18:04:24.301715 18518 net.cpp:454] conv5_2 <- conv5_1
I0601 18:04:24.301722 18518 net.cpp:411] conv5_2 -> conv5_2
I0601 18:04:24.306922 18518 net.cpp:150] Setting up conv5_2
I0601 18:04:24.306944 18518 net.cpp:157] Top shape: 1 512 38 63 (1225728)
I0601 18:04:24.306948 18518 net.cpp:165] Memory required for data: 1375611732
I0601 18:04:24.306955 18518 layer_factory.hpp:77] Creating layer relu5_2
I0601 18:04:24.306962 18518 net.cpp:106] Creating Layer relu5_2
I0601 18:04:24.306965 18518 net.cpp:454] relu5_2 <- conv5_2
I0601 18:04:24.306972 18518 net.cpp:397] relu5_2 -> conv5_2 (in-place)
I0601 18:04:24.306978 18518 net.cpp:150] Setting up relu5_2
I0601 18:04:24.306982 18518 net.cpp:157] Top shape: 1 512 38 63 (1225728)
I0601 18:04:24.306985 18518 net.cpp:165] Memory required for data: 1380514644
I0601 18:04:24.306988 18518 layer_factory.hpp:77] Creating layer conv5_3
I0601 18:04:24.307016 18518 net.cpp:106] Creating Layer conv5_3
I0601 18:04:24.307019 18518 net.cpp:454] conv5_3 <- conv5_2
I0601 18:04:24.307025 18518 net.cpp:411] conv5_3 -> conv5_3
I0601 18:04:24.312549 18518 net.cpp:150] Setting up conv5_3
I0601 18:04:24.312584 18518 net.cpp:157] Top shape: 1 512 38 63 (1225728)
I0601 18:04:24.312588 18518 net.cpp:165] Memory required for data: 1385417556
I0601 18:04:24.312595 18518 layer_factory.hpp:77] Creating layer relu5_3
I0601 18:04:24.312602 18518 net.cpp:106] Creating Layer relu5_3
I0601 18:04:24.312608 18518 net.cpp:454] relu5_3 <- conv5_3
I0601 18:04:24.312613 18518 net.cpp:397] relu5_3 -> conv5_3 (in-place)
I0601 18:04:24.312636 18518 net.cpp:150] Setting up relu5_3
I0601 18:04:24.312640 18518 net.cpp:157] Top shape: 1 512 38 63 (1225728)
I0601 18:04:24.312644 18518 net.cpp:165] Memory required for data: 1390320468
I0601 18:04:24.312646 18518 layer_factory.hpp:77] Creating layer conv5_3_relu5_3_0_split
I0601 18:04:24.312654 18518 net.cpp:106] Creating Layer conv5_3_relu5_3_0_split
I0601 18:04:24.312672 18518 net.cpp:454] conv5_3_relu5_3_0_split <- conv5_3
I0601 18:04:24.312677 18518 net.cpp:411] conv5_3_relu5_3_0_split -> conv5_3_relu5_3_0_split_0
I0601 18:04:24.312700 18518 net.cpp:411] conv5_3_relu5_3_0_split -> conv5_3_relu5_3_0_split_1
I0601 18:04:24.312741 18518 net.cpp:150] Setting up conv5_3_relu5_3_0_split
I0601 18:04:24.312747 18518 net.cpp:157] Top shape: 1 512 38 63 (1225728)
I0601 18:04:24.312752 18518 net.cpp:157] Top shape: 1 512 38 63 (1225728)
I0601 18:04:24.312755 18518 net.cpp:165] Memory required for data: 1400126292
I0601 18:04:24.312759 18518 layer_factory.hpp:77] Creating layer rpn_conv/3x3
I0601 18:04:24.312770 18518 net.cpp:106] Creating Layer rpn_conv/3x3
I0601 18:04:24.312775 18518 net.cpp:454] rpn_conv/3x3 <- conv5_3_relu5_3_0_split_0
I0601 18:04:24.312783 18518 net.cpp:411] rpn_conv/3x3 -> rpn/output
I0601 18:04:24.378399 18518 net.cpp:150] Setting up rpn_conv/3x3
I0601 18:04:24.378432 18518 net.cpp:157] Top shape: 1 512 38 63 (1225728)
I0601 18:04:24.378437 18518 net.cpp:165] Memory required for data: 1405029204
I0601 18:04:24.378444 18518 layer_factory.hpp:77] Creating layer rpn_relu/3x3
I0601 18:04:24.378453 18518 net.cpp:106] Creating Layer rpn_relu/3x3
I0601 18:04:24.378456 18518 net.cpp:454] rpn_relu/3x3 <- rpn/output
I0601 18:04:24.378463 18518 net.cpp:397] rpn_relu/3x3 -> rpn/output (in-place)
I0601 18:04:24.378470 18518 net.cpp:150] Setting up rpn_relu/3x3
I0601 18:04:24.378474 18518 net.cpp:157] Top shape: 1 512 38 63 (1225728)
I0601 18:04:24.378494 18518 net.cpp:165] Memory required for data: 1409932116
I0601 18:04:24.378496 18518 layer_factory.hpp:77] Creating layer rpn/output_rpn_relu/3x3_0_split
I0601 18:04:24.378504 18518 net.cpp:106] Creating Layer rpn/output_rpn_relu/3x3_0_split
I0601 18:04:24.378506 18518 net.cpp:454] rpn/output_rpn_relu/3x3_0_split <- rpn/output
I0601 18:04:24.378511 18518 net.cpp:411] rpn/output_rpn_relu/3x3_0_split -> rpn/output_rpn_relu/3x3_0_split_0
I0601 18:04:24.378518 18518 net.cpp:411] rpn/output_rpn_relu/3x3_0_split -> rpn/output_rpn_relu/3x3_0_split_1
I0601 18:04:24.378562 18518 net.cpp:150] Setting up rpn/output_rpn_relu/3x3_0_split
I0601 18:04:24.378571 18518 net.cpp:157] Top shape: 1 512 38 63 (1225728)
I0601 18:04:24.378574 18518 net.cpp:157] Top shape: 1 512 38 63 (1225728)
I0601 18:04:24.378577 18518 net.cpp:165] Memory required for data: 1419737940
I0601 18:04:24.378582 18518 layer_factory.hpp:77] Creating layer rpn_cls_score
I0601 18:04:24.378592 18518 net.cpp:106] Creating Layer rpn_cls_score
I0601 18:04:24.378595 18518 net.cpp:454] rpn_cls_score <- rpn/output_rpn_relu/3x3_0_split_0
I0601 18:04:24.378603 18518 net.cpp:411] rpn_cls_score -> rpn_cls_score
I0601 18:04:24.379135 18518 net.cpp:150] Setting up rpn_cls_score
I0601 18:04:24.379171 18518 net.cpp:157] Top shape: 1 18 38 63 (43092)
I0601 18:04:24.379174 18518 net.cpp:165] Memory required for data: 1419910308
I0601 18:04:24.379180 18518 layer_factory.hpp:77] Creating layer rpn_cls_score_rpn_cls_score_0_split
I0601 18:04:24.379186 18518 net.cpp:106] Creating Layer rpn_cls_score_rpn_cls_score_0_split
I0601 18:04:24.379190 18518 net.cpp:454] rpn_cls_score_rpn_cls_score_0_split <- rpn_cls_score
I0601 18:04:24.379195 18518 net.cpp:411] rpn_cls_score_rpn_cls_score_0_split -> rpn_cls_score_rpn_cls_score_0_split_0
I0601 18:04:24.379205 18518 net.cpp:411] rpn_cls_score_rpn_cls_score_0_split -> rpn_cls_score_rpn_cls_score_0_split_1
I0601 18:04:24.379269 18518 net.cpp:150] Setting up rpn_cls_score_rpn_cls_score_0_split
I0601 18:04:24.379277 18518 net.cpp:157] Top shape: 1 18 38 63 (43092)
I0601 18:04:24.379281 18518 net.cpp:157] Top shape: 1 18 38 63 (43092)
I0601 18:04:24.379284 18518 net.cpp:165] Memory required for data: 1420255044
I0601 18:04:24.379287 18518 layer_factory.hpp:77] Creating layer rpn_bbox_pred
I0601 18:04:24.379297 18518 net.cpp:106] Creating Layer rpn_bbox_pred
I0601 18:04:24.379302 18518 net.cpp:454] rpn_bbox_pred <- rpn/output_rpn_relu/3x3_0_split_1
I0601 18:04:24.379308 18518 net.cpp:411] rpn_bbox_pred -> rpn_bbox_pred
I0601 18:04:24.380074 18518 net.cpp:150] Setting up rpn_bbox_pred
I0601 18:04:24.380081 18518 net.cpp:157] Top shape: 1 36 38 63 (86184)
I0601 18:04:24.380100 18518 net.cpp:165] Memory required for data: 1420599780
I0601 18:04:24.380106 18518 layer_factory.hpp:77] Creating layer rpn_bbox_pred_rpn_bbox_pred_0_split
I0601 18:04:24.380112 18518 net.cpp:106] Creating Layer rpn_bbox_pred_rpn_bbox_pred_0_split
I0601 18:04:24.380117 18518 net.cpp:454] rpn_bbox_pred_rpn_bbox_pred_0_split <- rpn_bbox_pred
I0601 18:04:24.380122 18518 net.cpp:411] rpn_bbox_pred_rpn_bbox_pred_0_split -> rpn_bbox_pred_rpn_bbox_pred_0_split_0
I0601 18:04:24.380127 18518 net.cpp:411] rpn_bbox_pred_rpn_bbox_pred_0_split -> rpn_bbox_pred_rpn_bbox_pred_0_split_1
I0601 18:04:24.380177 18518 net.cpp:150] Setting up rpn_bbox_pred_rpn_bbox_pred_0_split
I0601 18:04:24.380184 18518 net.cpp:157] Top shape: 1 36 38 63 (86184)
I0601 18:04:24.380188 18518 net.cpp:157] Top shape: 1 36 38 63 (86184)
I0601 18:04:24.380192 18518 net.cpp:165] Memory required for data: 1421289252
I0601 18:04:24.380195 18518 layer_factory.hpp:77] Creating layer rpn_cls_score_reshape
I0601 18:04:24.380203 18518 net.cpp:106] Creating Layer rpn_cls_score_reshape
I0601 18:04:24.380208 18518 net.cpp:454] rpn_cls_score_reshape <- rpn_cls_score_rpn_cls_score_0_split_0
I0601 18:04:24.380213 18518 net.cpp:411] rpn_cls_score_reshape -> rpn_cls_score_reshape
I0601 18:04:24.380239 18518 net.cpp:150] Setting up rpn_cls_score_reshape
I0601 18:04:24.380246 18518 net.cpp:157] Top shape: 1 2 342 63 (43092)
I0601 18:04:24.380249 18518 net.cpp:165] Memory required for data: 1421461620
I0601 18:04:24.380252 18518 layer_factory.hpp:77] Creating layer rpn_cls_score_reshape_rpn_cls_score_reshape_0_split
I0601 18:04:24.380259 18518 net.cpp:106] Creating Layer rpn_cls_score_reshape_rpn_cls_score_reshape_0_split
I0601 18:04:24.380262 18518 net.cpp:454] rpn_cls_score_reshape_rpn_cls_score_reshape_0_split <- rpn_cls_score_reshape
I0601 18:04:24.380272 18518 net.cpp:411] rpn_cls_score_reshape_rpn_cls_score_reshape_0_split -> rpn_cls_score_reshape_rpn_cls_score_reshape_0_split_0
I0601 18:04:24.380278 18518 net.cpp:411] rpn_cls_score_reshape_rpn_cls_score_reshape_0_split -> rpn_cls_score_reshape_rpn_cls_score_reshape_0_split_1
I0601 18:04:24.380307 18518 net.cpp:150] Setting up rpn_cls_score_reshape_rpn_cls_score_reshape_0_split
I0601 18:04:24.380314 18518 net.cpp:157] Top shape: 1 2 342 63 (43092)
I0601 18:04:24.380318 18518 net.cpp:157] Top shape: 1 2 342 63 (43092)
I0601 18:04:24.380321 18518 net.cpp:165] Memory required for data: 1421806356
I0601 18:04:24.380324 18518 layer_factory.hpp:77] Creating layer rpn-data
I0601 18:04:24.380905 18518 net.cpp:106] Creating Layer rpn-data
I0601 18:04:24.380918 18518 net.cpp:454] rpn-data <- rpn_cls_score_rpn_cls_score_0_split_1
I0601 18:04:24.380939 18518 net.cpp:454] rpn-data <- gt_boxes_input-data_2_split_0
I0601 18:04:24.380944 18518 net.cpp:454] rpn-data <- im_info_input-data_1_split_0
I0601 18:04:24.380949 18518 net.cpp:454] rpn-data <- data_input-data_0_split_1
I0601 18:04:24.380954 18518 net.cpp:411] rpn-data -> rpn_labels
I0601 18:04:24.380962 18518 net.cpp:411] rpn-data -> rpn_bbox_targets
I0601 18:04:24.380969 18518 net.cpp:411] rpn-data -> rpn_bbox_inside_weights
I0601 18:04:24.380991 18518 net.cpp:411] rpn-data -> rpn_bbox_outside_weights
I0601 18:04:24.382234 18518 net.cpp:150] Setting up rpn-data
I0601 18:04:24.382266 18518 net.cpp:157] Top shape: 1 1 342 63 (21546)
I0601 18:04:24.382270 18518 net.cpp:157] Top shape: 1 36 38 63 (86184)
I0601 18:04:24.382274 18518 net.cpp:157] Top shape: 1 36 38 63 (86184)
I0601 18:04:24.382278 18518 net.cpp:157] Top shape: 1 36 38 63 (86184)
I0601 18:04:24.382282 18518 net.cpp:165] Memory required for data: 1422926748
I0601 18:04:24.382287 18518 layer_factory.hpp:77] Creating layer rpn_loss_cls
I0601 18:04:24.382294 18518 net.cpp:106] Creating Layer rpn_loss_cls
I0601 18:04:24.382298 18518 net.cpp:454] rpn_loss_cls <- rpn_cls_score_reshape_rpn_cls_score_reshape_0_split_0
I0601 18:04:24.382320 18518 net.cpp:454] rpn_loss_cls <- rpn_labels
…
I0601 18:04:24.383424 18518 net.cpp:157] Top shape: (1)
I0601 18:04:24.383442 18518 net.cpp:160]     with loss weight 1
I0601 18:04:24.383447 18518 net.cpp:165] Memory required for data: 1422926756
I0601 18:04:24.383451 18518 layer_factory.hpp:77] Creating layer rpn_cls_prob
I0601 18:04:24.383457 18518 net.cpp:106] Creating Layer rpn_cls_prob
I0601 18:04:24.383461 18518 net.cpp:454] rpn_cls_prob <- rpn_cls_score_reshape_rpn_cls_score_reshape_0_split_1
I0601 18:04:24.383466 18518 net.cpp:411] rpn_cls_prob -> rpn_cls_prob
I0601 18:04:24.383541 18518 net.cpp:150] Setting up rpn_cls_prob
I0601 18:04:24.383548 18518 net.cpp:157] Top shape: 1 2 342 63 (43092)
I0601 18:04:24.383553 18518 net.cpp:165] Memory required for data: 1423099124
I0601 18:04:24.383555 18518 layer_factory.hpp:77] Creating layer rpn_cls_prob_reshape
I0601 18:04:24.383564 18518 net.cpp:106] Creating Layer rpn_cls_prob_reshape
I0601 18:04:24.383569 18518 net.cpp:454] rpn_cls_prob_reshape <- rpn_cls_prob
I0601 18:04:24.383575 18518 net.cpp:411] rpn_cls_prob_reshape -> rpn_cls_prob_reshape
I0601 18:04:24.383599 18518 net.cpp:150] Setting up rpn_cls_prob_reshape
I0601 18:04:24.383605 18518 net.cpp:157] Top shape: 1 18 38 63 (43092)
I0601 18:04:24.383610 18518 net.cpp:165] Memory required for data: 1423271492
I0601 18:04:24.383612 18518 layer_factory.hpp:77] Creating layer proposal
I0601 18:04:24.384418 18518 net.cpp:106] Creating Layer proposal
I0601 18:04:24.384431 18518 net.cpp:454] proposal <- rpn_cls_prob_reshape
I0601 18:04:24.384438 18518 net.cpp:454] proposal <- rpn_bbox_pred_rpn_bbox_pred_0_split_1
I0601 18:04:24.384443 18518 net.cpp:454] proposal <- im_info_input-data_1_split_1
I0601 18:04:24.384464 18518 net.cpp:411] proposal -> rpn_rois
I0601 18:04:24.387334 18518 net.cpp:150] Setting up proposal
I0601 18:04:24.387364 18518 net.cpp:157] Top shape: 1 5 (5)
I0601 18:04:24.387368 18518 net.cpp:165] Memory required for data: 1423271512
I0601 18:04:24.387372 18518 layer_factory.hpp:77] Creating layer roi-data
I0601 18:04:24.387586 18518 net.cpp:106] Creating Layer roi-data
I0601 18:04:24.387598 18518 net.cpp:454] roi-data <- rpn_rois
I0601 18:04:24.387604 18518 net.cpp:454] roi-data <- gt_boxes_input-data_2_split_1
I0601 18:04:24.387611 18518 net.cpp:411] roi-data -> rois
I0601 18:04:24.387620 18518 net.cpp:411] roi-data -> labels
I0601 18:04:24.387627 18518 net.cpp:411] roi-data -> bbox_targets
I0601 18:04:24.387634 18518 net.cpp:411] roi-data -> bbox_inside_weights
I0601 18:04:24.387640 18518 net.cpp:411] roi-data -> bbox_outside_weights
I0601 18:04:24.388062 18518 net.cpp:150] Setting up roi-data
I0601 18:04:24.388074 18518 net.cpp:157] Top shape: 1 5 (5)
I0601 18:04:24.388094 18518 net.cpp:157] Top shape: 1 1 (1)
I0601 18:04:24.388098 18518 net.cpp:157] Top shape: 1 8 (8)
I0601 18:04:24.388101 18518 net.cpp:157] Top shape: 1 8 (8)
I0601 18:04:24.388105 18518 net.cpp:157] Top shape: 1 8 (8)
I0601 18:04:24.388108 18518 net.cpp:165] Memory required for data: 1423271632
I0601 18:04:24.388113 18518 layer_factory.hpp:77] Creating layer roi_pool5
I0601 18:04:24.388124 18518 net.cpp:106] Creating Layer roi_pool5
I0601 18:04:24.388144 18518 net.cpp:454] roi_pool5 <- conv5_3_relu5_3_0_split_1
I0601 18:04:24.388150 18518 net.cpp:454] roi_pool5 <- rois
I0601 18:04:24.388156 18518 net.cpp:411] roi_pool5 -> pool5
I0601 18:04:24.388164 18518 roi_pooling_layer.cpp:30] Spatial scale: 0.0625
I0601 18:04:24.388203 18518 net.cpp:150] Setting up roi_pool5
I0601 18:04:24.388211 18518 net.cpp:157] Top shape: 1 512 7 7 (25088)
I0601 18:04:24.388214 18518 net.cpp:165] Memory required for data: 1423371984
I0601 18:04:24.388217 18518 layer_factory.hpp:77] Creating layer fc6
I0601 18:04:24.388226 18518 net.cpp:106] Creating Layer fc6
I0601 18:04:24.388229 18518 net.cpp:454] fc6 <- pool5
I0601 18:04:24.388236 18518 net.cpp:411] fc6 -> fc6
I0601 18:04:24.719641 18518 net.cpp:150] Setting up fc6
I0601 18:04:24.719696 18518 net.cpp:157] Top shape: 1 4096 (4096)
I0601 18:04:24.719702 18518 net.cpp:165] Memory required for data: 1423388368
I0601 18:04:24.719727 18518 layer_factory.hpp:77] Creating layer relu6
I0601 18:04:24.719743 18518 net.cpp:106] Creating Layer relu6
I0601 18:04:24.719750 18518 net.cpp:454] relu6 <- fc6
I0601 18:04:24.719759 18518 net.cpp:397] relu6 -> fc6 (in-place)
I0601 18:04:24.719772 18518 net.cpp:150] Setting up relu6
I0601 18:04:24.719777 18518 net.cpp:157] Top shape: 1 4096 (4096)
I0601 18:04:24.719781 18518 net.cpp:165] Memory required for data: 1423404752
I0601 18:04:24.719785 18518 layer_factory.hpp:77] Creating layer drop6
I0601 18:04:24.719811 18518 net.cpp:106] Creating Layer drop6
I0601 18:04:24.719816 18518 net.cpp:454] drop6 <- fc6
I0601 18:04:24.719822 18518 net.cpp:397] drop6 -> fc6 (in-place)
I0601 18:04:24.719854 18518 net.cpp:150] Setting up drop6
I0601 18:04:24.719863 18518 net.cpp:157] Top shape: 1 4096 (4096)
I0601 18:04:24.719867 18518 net.cpp:165] Memory required for data: 1423421136
I0601 18:04:24.719872 18518 layer_factory.hpp:77] Creating layer fc7
I0601 18:04:24.719882 18518 net.cpp:106] Creating Layer fc7
I0601 18:04:24.719887 18518 net.cpp:454] fc7 <- fc6
I0601 18:04:24.719894 18518 net.cpp:411] fc7 -> fc7
I0601 18:04:24.792021 18518 net.cpp:150] Setting up fc7
I0601 18:04:24.792073 18518 net.cpp:157] Top shape: 1 4096 (4096)
I0601 18:04:24.792078 18518 net.cpp:165] Memory required for data: 1423437520
I0601 18:04:24.792094 18518 layer_factory.hpp:77] Creating layer relu7
I0601 18:04:24.792109 18518 net.cpp:106] Creating Layer relu7
I0601 18:04:24.792115 18518 net.cpp:454] relu7 <- fc7
I0601 18:04:24.792125 18518 net.cpp:397] relu7 -> fc7 (in-place)
I0601 18:04:24.792140 18518 net.cpp:150] Setting up relu7
I0601 18:04:24.792145 18518 net.cpp:157] Top shape: 1 4096 (4096)
I0601 18:04:24.792148 18518 net.cpp:165] Memory required for data: 1423453904
I0601 18:04:24.792152 18518 layer_factory.hpp:77] Creating layer drop7
I0601 18:04:24.792162 18518 net.cpp:106] Creating Layer drop7
I0601 18:04:24.792166 18518 net.cpp:454] drop7 <- fc7
I0601 18:04:24.792173 18518 net.cpp:397] drop7 -> fc7 (in-place)
I0601 18:04:24.792204 18518 net.cpp:150] Setting up drop7
I0601 18:04:24.792212 18518 net.cpp:157] Top shape: 1 4096 (4096)
I0601 18:04:24.792217 18518 net.cpp:165] Memory required for data: 1423470288
I0601 18:04:24.792222 18518 layer_factory.hpp:77] Creating layer fc7_drop7_0_split
I0601 18:04:24.792230 18518 net.cpp:106] Creating Layer fc7_drop7_0_split
I0601 18:04:24.792234 18518 net.cpp:454] fc7_drop7_0_split <- fc7
I0601 18:04:24.792243 18518 net.cpp:411] fc7_drop7_0_split -> fc7_drop7_0_split_0
I0601 18:04:24.792251 18518 net.cpp:411] fc7_drop7_0_split -> fc7_drop7_0_split_1
I0601 18:04:24.792300 18518 net.cpp:150] Setting up fc7_drop7_0_split
I0601 18:04:24.792309 18518 net.cpp:157] Top shape: 1 4096 (4096)
I0601 18:04:24.792313 18518 net.cpp:157] Top shape: 1 4096 (4096)
I0601 18:04:24.792317 18518 net.cpp:165] Memory required for data: 1423503056
I0601 18:04:24.792321 18518 layer_factory.hpp:77] Creating layer new_cls_score
I0601 18:04:24.792332 18518 net.cpp:106] Creating Layer new_cls_score
I0601 18:04:24.792337 18518 net.cpp:454] new_cls_score <- fc7_drop7_0_split_0
I0601 18:04:24.792346 18518 net.cpp:411] new_cls_score -> new_cls_score
I0601 18:04:24.792770 18518 net.cpp:150] Setting up new_cls_score
I0601 18:04:24.792780 18518 net.cpp:157] Top shape: 1 2 (2)
I0601 18:04:24.792784 18518 net.cpp:165] Memory required for data: 1423503064
I0601 18:04:24.792791 18518 layer_factory.hpp:77] Creating layer new_bbox_pred
I0601 18:04:24.792798 18518 net.cpp:106] Creating Layer new_bbox_pred
I0601 18:04:24.792804 18518 net.cpp:454] new_bbox_pred <- fc7_drop7_0_split_1
I0601 18:04:24.792810 18518 net.cpp:411] new_bbox_pred -> new_bbox_pred
I0601 18:04:24.794153 18518 net.cpp:150] Setting up new_bbox_pred
I0601 18:04:24.794163 18518 net.cpp:157] Top shape: 1 8 (8)
I0601 18:04:24.794168 18518 net.cpp:165] Memory required for data: 1423503096
I0601 18:04:24.794175 18518 layer_factory.hpp:77] Creating layer loss_cls
I0601 18:04:24.794184 18518 net.cpp:106] Creating Layer loss_cls
I0601 18:04:24.794189 18518 net.cpp:454] loss_cls <- new_cls_score
I0601 18:04:24.794194 18518 net.cpp:454] loss_cls <- labels
I0601 18:04:24.794201 18518 net.cpp:411] loss_cls -> loss_cls
…
           'RPN_POST_NMS_TOP_N': 2000,
           'RPN_PRE_NMS_TOP_N': 12000,
           'SCALES': [600],
           'SNAPSHOT_INFIX': '',
           'SNAPSHOT_ITERS': 10000,
           'USE_FLIPPED': True,
           'USE_PREFETCH': False},
 'USE_GPU_NMS': True}
WARNING: Logging before InitGoogleLogging() is written to STDERR
I0602 02:30:26.038105 24116 net.cpp:49] Initializing net from parameters: 
name: "VGG_ILSVRC_16_layers"
input: "data"
input: "im_info"
state {
  phase: TEST
}
input_shape {
  dim: 1
  dim: 3
  dim: 224
  dim: 224
}
input_shape {
  dim: 1
  dim: 3
}
layer {
  name: "conv1_1"
  type: "Convolution"
  bottom: "data"
  top: "conv1_1"
  param {
    lr_mult: 0
    decay_mult: 0
  }
  param {
    lr_mult: 0
    decay_mult: 0
  }
  convolution_param {
    num_output: 64
    pad: 1
    kernel_size: 3
  }
}
layer {
  name: "relu1_1"
  type: "ReLU"
  bottom: "conv1_1"
  top: "conv1_1"
}
layer {
  name: "conv1_2"
  type: "Convolution"
  bottom: "conv1_1"
  top: "conv1_2"
  param {
    lr_mult: 0
    decay_mult: 0
  }
  param {
    lr_mult: 0
    decay_mult: 0
  }
  convolution_param {
    num_output: 64
    pad: 1
    kernel_size: 3
  }
}
layer {
  name: "relu1_2"
  type: "ReLU"
  bottom: "conv1_2"
  top: "conv1_2"
}
layer {
  name: "pool1"
  type: "Pooling"
  bottom: "conv1_2"
  top: "pool1"
  pooling_param {
    pool: MAX
    kernel_size: 2
    stride: 2
  }
}
layer {
  name: "conv2_1"
  type: "Convolution"
  bottom: "pool1"
  top: "conv2_1"
  param {
    lr_mult: 0
    decay_mult: 0
  }
  param {
    lr_mult: 0
    decay_mult: 0
  }
  convolution_param {
    num_output: 128
    pad: 1
    kernel_size: 3
  }
}
layer {
  name: "relu2_1"
  type: "ReLU"
  bottom: "conv2_1"
  top: "conv2_1"
}
layer {
  name: "conv2_2"
  type: "Convolution"
  bottom: "conv2_1"
  top: "conv2_2"
  param {
    lr_mult: 0
    decay_mult: 0
  }
  param {
    lr_mult: 0
    decay_mult: 0
  }
  convolution_param {
    num_output: 128
    pad: 1
    kernel_size: 3
  }
}
layer {
  name: "relu2_2"
  type: "ReLU"
  bottom: "conv2_2"
  top: "conv2_2"
}
layer {
  name: "pool2"
  type: "Pooling"
  bottom: "conv2_2"
  top: "pool2"
  pooling_param {
    pool: MAX
    kernel_size: 2
    stride: 2
  }
}
layer {
  name: "conv3_1"
  type: "Convolution"
  bottom: "pool2"
  top: "conv3_1"
  param {
    lr_mult: 1
    decay_mult: 1
  }
  param {
    lr_mult: 2
    decay_mult: 0
  }
  convolution_param {
    num_output: 256
    pad: 1
    kernel_size: 3
  }
}
layer {
  name: "relu3_1"
  type: "ReLU"
  bottom: "conv3_1"
  top: "conv3_1"
}
layer {
  name: "conv3_2"
  type: "Convolution"
  bottom: "conv3_1"
  top: "conv3_2"
  param {
    lr_mult: 1
    decay_mult: 1
  }
  param {
    lr_mult: 2
    decay_mult: 0
  }
  convolution_param {
    num_output: 256
    pad: 1
    kernel_size: 3
  }
}
layer {
  name: "relu3_2"
  type: "ReLU"
  bottom: "conv3_2"
  top: "conv3_2"
}
layer {
  name: "conv3_3"
  type: "Convolution"
  bottom: "conv3_2"
  top: "conv3_3"
  param {
    lr_mult: 1
    decay_mult: 1
  }
  param {
    lr_mult: 2
    decay_mult: 0
  }
  convolution_param {
    num_output: 256
    pad: 1
    kernel_size: 3
  }
}
layer {
  name: "relu3_3"
  type: "ReLU"
  bottom: "conv3_3"
  top: "conv3_3"
}
layer {
  name: "pool3"
  type: "Pooling"
  bottom: "conv3_3"
  top: "pool3"
  pooling_param {
    pool: MAX
    kernel_size: 2
    stride: 2
  }
}
layer {
  name: "conv4_1"
  type: "Convolution"
  bottom: "pool3"
  top: "conv4_1"
  param {
    lr_mult: 1
    decay_mult: 1
  }
  param {
    lr_mult: 2
    decay_mult: 0
  }
  convolution_param {
    num_output: 512
    pad: 1
    kernel_size: 3
  }
}
layer {
  name: "relu4_1"
  type: "ReLU"
  bottom: "conv4_1"
  top: "conv4_1"
}
layer {
  name: "conv4_2"
  type: "Convolution"
  bottom: "conv4_1"
  top: "conv4_2"
  param {
    lr_mult: 1
    decay_mult: 1
  }
  param {
    lr_mult: 2
    decay_mult: 0
  }
  convolution_param {
    num_output: 512
    pad: 1
    kernel_size: 3
  }
}
layer {
  name: "relu4_2"
  type: "ReLU"
  bottom: "conv4_2"
  top: "conv4_2"
}
layer {
  name: "conv4_3"
  type: "Convolution"
  bottom: "conv4_2"
  top: "conv4_3"
  param {
    lr_mult: 1
    decay_mult: 1
  }
  param {
    lr_mult: 2
    decay_mult: 0
  }
  convolution_param {
    num_output: 512
    pad: 1
    kernel_size: 3
  }
}
layer {
  name: "relu4_3"
  type: "ReLU"
  bottom: "conv4_3"
  top: "conv4_3"
}
layer {
  name: "pool4"
  type: "Pooling"
  bottom: "conv4_3"
  top: "pool4"
  pooling_param {
    pool: MAX
    kernel_size: 2
    stride: 2
  }
}
layer {
  name: "conv5_1"
  type: "Convolution"
  bottom: "pool4"
  top: "conv5_1"
  param {
    lr_mult: 1
    decay_mult: 1
  }
  param {
    lr_mult: 2
    decay_mult: 0
  }
  convolution_param {
    num_output: 512
    pad: 1
    kernel_size: 3
  }
}
layer {
  name: "relu5_1"
  type: "ReLU"
  bottom: "conv5_1"
  top: "conv5_1"
}
layer {
  name: "conv5_2"
  type: "Convolution"
  bottom: "conv5_1"
  top: "conv5_2"
  param {
    lr_mult: 1
    decay_mult: 1
  }
  param {
    lr_mult: 2
    decay_mult: 0
  }
  convolution_param {
    num_output: 512
    pad: 1
    kernel_size: 3
  }
}
layer {
  name: "relu5_2"
  type: "ReLU"
  bottom: "conv5_2"
  top: "conv5_2"
}
layer {
  name: "conv5_3"
  type: "Convolution"
  bottom: "conv5_2"
  top: "conv5_3"
  param {
    lr_mult: 1
    decay_mult: 1
  }
  param {
    lr_mult: 2
    decay_mult: 0
  }
  convolution_param {
    num_output: 512
    pad: 1
    kernel_size: 3
  }
}
layer {
  name: "relu5_3"
  type: "ReLU"
  bottom: "conv5_3"
  top: "conv5_3"
}
layer {
  name: "rpn_conv/3x3"
  type: "Convolution"
  bottom: "conv5_3"
  top: "rpn/output"
  param {
    lr_mult: 1
    decay_mult: 1
  }
  param {
    lr_mult: 2
    decay_mult: 0
  }
  convolution_param {
    num_output: 512
    pad: 1
    kernel_size: 3
    stride: 1
    weight_filler {
      type: "gaussian"
      std: 0.01
    }
    bias_filler {
      type: "constant"
      value: 0
    }
  }
}
layer {
  name: "rpn_relu/3x3"
  type: "ReLU"
  bottom: "rpn/output"
  top: "rpn/output"
}
layer {
  name: "rpn_cls_score"
  type: "Convolution"
  bottom: "rpn/output"
  top: "rpn_cls_score"
  param {
    lr_mult: 1
    decay_mult: 1
  }
  param {
    lr_mult: 2
    decay_mult: 0
  }
  convolution_param {
    num_output: 18
    pad: 0
    kernel_size: 1
    stride: 1
    weight_filler {
      type: "gaussian"
      std: 0.01
    }
    bias_filler {
      type: "constant"
      value: 0
    }
  }
}
layer {
  name: "rpn_bbox_pred"
  type: "Convolution"
  bottom: "rpn/output"
  top: "rpn_bbox_pred"
  param {
    lr_mult: 1
    decay_mult: 1
  }
  param {
    lr_mult: 2
    decay_mult: 0
  }
  convolution_param {
    num_output: 36
    pad: 0
    kernel_size: 1
    stride: 1
    weight_filler {
      type: "gaussian"
      std: 0.01
    }
    bias_filler {
      type: "constant"
      value: 0
    }
  }
}
layer {
  name: "rpn_cls_score_reshape"
  type: "Reshape"
  bottom: "rpn_cls_score"
  top: "rpn_cls_score_reshape"
  reshape_param {
    shape {
      dim: 0
      dim: 2
      dim: -1
      dim: 0
    }
  }
}
layer {
  name: "rpn_cls_prob"
  type: "Softmax"
  bottom: "rpn_cls_score_reshape"
  top: "rpn_cls_prob"
}
layer {
  name: "rpn_cls_prob_reshape"
  type: "Reshape"
  bottom: "rpn_cls_prob"
  top: "rpn_cls_prob_reshape"
  reshape_param {
    shape {
      dim: 0
      dim: 18
      dim: -1
      dim: 0
    }
  }
}
layer {
  name: "proposal"
  type: "Python"
  bottom: "rpn_cls_prob_reshape"
  bottom: "rpn_bbox_pred"
  bottom: "im_info"
  top: "rois"
  python_param {
    module: "rpn.proposal_layer"
    layer: "ProposalLayer"
    param_str: "\'feat_stride\': 16"
  }
}
layer {
  name: "roi_pool5"
  type: "ROIPooling"
  bottom: "conv5_3"
  bottom: "rois"
  top: "pool5"
  roi_pooling_param {
    pooled_h: 7
    pooled_w: 7
    spatial_scale: 0.0625
  }
}
layer {
  name: "fc6"
  type: "InnerProduct"
  bottom: "pool5"
  top: "fc6"
  param {
    lr_mult: 1
    decay_mult: 1
  }
  param {
    lr_mult: 2
    decay_mult: 0
  }
  inner_product_param {
    num_output: 4096
  }
}
layer {
  name: "relu6"
  type: "ReLU"
  bottom: "fc6"
  top: "fc6"
}
layer {
  name: "drop6"
  type: "Dropout"
  bottom: "fc6"
  top: "fc6"
  dropout_param {
    dropout_ratio: 0.5
  }
}
layer {
  name: "fc7"
  type: "InnerProduct"
  bottom: "fc6"
  top: "fc7"
  param {
    lr_mult: 1
    decay_mult: 1
  }
  param {
    lr_mult: 2
    decay_mult: 0
  }
  inner_product_param {
    num_output: 4096
  }
}
layer {
  name: "relu7"
  type: "ReLU"
  bottom: "fc7"
  top: "fc7"
}
layer {
  name: "drop7"
  type: "Dropout"
  bottom: "fc7"
  top: "fc7"
  dropout_param {
    dropout_ratio: 0.5
  }
}
layer {
  name: "new_cls_score"
  type: "InnerProduct"
  bottom: "fc7"
  top: "new_cls_score"
  param {
    lr_mult: 1
    decay_mult: 1
  }
  param {
    lr_mult: 2
    decay_mult: 0
  }
  inner_product_param {
    num_output: 2
    weight_filler {
      type: "gaussian"
      std: 0.01
    }
    bias_filler {
      type: "constant"
      value: 0
    }
  }
}
layer {
  name: "new_bbox_pred"
  type: "InnerProduct"
  bottom: "fc7"
  top: "new_bbox_pred"
  param {
    lr_mult: 1
    decay_mult: 1
  }
  param {
    lr_mult: 2
    decay_mult: 0
  }
  inner_product_param {
    num_output: 8
    weight_filler {
      type: "gaussian"
      std: 0.001
    }
    bias_filler {
      type: "constant"
      value: 0
    }
  }
}
layer {
  name: "cls_prob"
  type: "Softmax"
  bottom: "new_cls_score"
  top: "cls_prob"
}
I0602 02:30:26.038401 24116 net.cpp:413] Input 0 -> data
I0602 02:30:26.058331 24116 net.cpp:413] Input 1 -> im_info
I0602 02:30:26.058387 24116 layer_factory.hpp:77] Creating layer conv1_1
I0602 02:30:26.058428 24116 net.cpp:106] Creating Layer conv1_1
I0602 02:30:26.058434 24116 net.cpp:454] conv1_1 <- data
I0602 02:30:26.058441 24116 net.cpp:411] conv1_1 -> conv1_1
I0602 02:30:26.061244 24116 net.cpp:150] Setting up conv1_1
I0602 02:30:26.061264 24116 net.cpp:157] Top shape: 1 64 224 224 (3211264)
I0602 02:30:26.061270 24116 net.cpp:165] Memory required for data: 12845056
I0602 02:30:26.061286 24116 layer_factory.hpp:77] Creating layer relu1_1
I0602 02:30:26.061296 24116 net.cpp:106] Creating Layer relu1_1
I0602 02:30:26.061301 24116 net.cpp:454] relu1_1 <- conv1_1
I0602 02:30:26.061307 24116 net.cpp:397] relu1_1 -> conv1_1 (in-place)
I0602 02:30:26.061331 24116 net.cpp:150] Setting up relu1_1
I0602 02:30:26.061337 24116 net.cpp:157] Top shape: 1 64 224 224 (3211264)
I0602 02:30:26.061342 24116 net.cpp:165] Memory required for data: 25690112
I0602 02:30:26.061345 24116 layer_factory.hpp:77] Creating layer conv1_2
I0602 02:30:26.061354 24116 net.cpp:106] Creating Layer conv1_2
I0602 02:30:26.061358 24116 net.cpp:454] conv1_2 <- conv1_1
I0602 02:30:26.061364 24116 net.cpp:411] conv1_2 -> conv1_2
I0602 02:30:26.061688 24116 net.cpp:150] Setting up conv1_2
I0602 02:30:26.061702 24116 net.cpp:157] Top shape: 1 64 224 224 (3211264)
I0602 02:30:26.061707 24116 net.cpp:165] Memory required for data: 38535168
I0602 02:30:26.061718 24116 layer_factory.hpp:77] Creating layer relu1_2
I0602 02:30:26.061725 24116 net.cpp:106] Creating Layer relu1_2
I0602 02:30:26.061729 24116 net.cpp:454] relu1_2 <- conv1_2
I0602 02:30:26.061734 24116 net.cpp:397] relu1_2 -> conv1_2 (in-place)
I0602 02:30:26.061741 24116 net.cpp:150] Setting up relu1_2
I0602 02:30:26.061748 24116 net.cpp:157] Top shape: 1 64 224 224 (3211264)
I0602 02:30:26.061751 24116 net.cpp:165] Memory required for data: 51380224
I0602 02:30:26.061755 24116 layer_factory.hpp:77] Creating layer pool1
I0602 02:30:26.061763 24116 net.cpp:106] Creating Layer pool1
I0602 02:30:26.061766 24116 net.cpp:454] pool1 <- conv1_2
I0602 02:30:26.061772 24116 net.cpp:411] pool1 -> pool1
I0602 02:30:26.061820 24116 net.cpp:150] Setting up pool1
I0602 02:30:26.061828 24116 net.cpp:157] Top shape: 1 64 112 112 (802816)
I0602 02:30:26.061832 24116 net.cpp:165] Memory required for data: 54591488
I0602 02:30:26.061837 24116 layer_factory.hpp:77] Creating layer conv2_1
I0602 02:30:26.061844 24116 net.cpp:106] Creating Layer conv2_1
I0602 02:30:26.061849 24116 net.cpp:454] conv2_1 <- pool1
I0602 02:30:26.061856 24116 net.cpp:411] conv2_1 -> conv2_1
I0602 02:30:26.067705 24116 net.cpp:150] Setting up conv2_1
I0602 02:30:26.067725 24116 net.cpp:157] Top shape: 1 128 112 112 (1605632)
I0602 02:30:26.067731 24116 net.cpp:165] Memory required for data: 61014016
I0602 02:30:26.067744 24116 layer_factory.hpp:77] Creating layer relu2_1
I0602 02:30:26.067751 24116 net.cpp:106] Creating Layer relu2_1
I0602 02:30:26.067759 24116 net.cpp:454] relu2_1 <- conv2_1
I0602 02:30:26.067764 24116 net.cpp:397] relu2_1 -> conv2_1 (in-place)
I0602 02:30:26.067772 24116 net.cpp:150] Setting up relu2_1
I0602 02:30:26.067778 24116 net.cpp:157] Top shape: 1 128 112 112 (1605632)
I0602 02:30:26.067782 24116 net.cpp:165] Memory required for data: 67436544
I0602 02:30:26.067786 24116 layer_factory.hpp:77] Creating layer conv2_2
I0602 02:30:26.067795 24116 net.cpp:106] Creating Layer conv2_2
I0602 02:30:26.067800 24116 net.cpp:454] conv2_2 <- conv2_1
I0602 02:30:26.067806 24116 net.cpp:411] conv2_2 -> conv2_2
I0602 02:30:26.068187 24116 net.cpp:150] Setting up conv2_2
I0602 02:30:26.068199 24116 net.cpp:157] Top shape: 1 128 112 112 (1605632)
I0602 02:30:26.068203 24116 net.cpp:165] Memory required for data: 73859072
I0602 02:30:26.068210 24116 layer_factory.hpp:77] Creating layer relu2_2
I0602 02:30:26.068220 24116 net.cpp:106] Creating Layer relu2_2
I0602 02:30:26.068224 24116 net.cpp:454] relu2_2 <- conv2_2
I0602 02:30:26.068231 24116 net.cpp:397] relu2_2 -> conv2_2 (in-place)
I0602 02:30:26.068238 24116 net.cpp:150] Setting up relu2_2
I0602 02:30:26.068243 24116 net.cpp:157] Top shape: 1 128 112 112 (1605632)
I0602 02:30:26.068246 24116 net.cpp:165] Memory required for data: 80281600
I0602 02:30:26.068250 24116 layer_factory.hpp:77] Creating layer pool2
I0602 02:30:26.068256 24116 net.cpp:106] Creating Layer pool2
I0602 02:30:26.068260 24116 net.cpp:454] pool2 <- conv2_2
I0602 02:30:26.068269 24116 net.cpp:411] pool2 -> pool2
I0602 02:30:26.068310 24116 net.cpp:150] Setting up pool2
I0602 02:30:26.068318 24116 net.cpp:157] Top shape: 1 128 56 56 (401408)
I0602 02:30:26.068322 24116 net.cpp:165] Memory required for data: 81887232
I0602 02:30:26.068325 24116 layer_factory.hpp:77] Creating layer conv3_1
I0602 02:30:26.068338 24116 net.cpp:106] Creating Layer conv3_1
I0602 02:30:26.068344 24116 net.cpp:454] conv3_1 <- pool2
I0602 02:30:26.068351 24116 net.cpp:411] conv3_1 -> conv3_1
I0602 02:30:26.068840 24116 net.cpp:150] Setting up conv3_1
I0602 02:30:26.068850 24116 net.cpp:157] Top shape: 1 256 56 56 (802816)
I0602 02:30:26.068855 24116 net.cpp:165] Memory required for data: 85098496
I0602 02:30:26.068866 24116 layer_factory.hpp:77] Creating layer relu3_1
I0602 02:30:26.068872 24116 net.cpp:106] Creating Layer relu3_1
I0602 02:30:26.068876 24116 net.cpp:454] relu3_1 <- conv3_1
I0602 02:30:26.068882 24116 net.cpp:397] relu3_1 -> conv3_1 (in-place)
I0602 02:30:26.068888 24116 net.cpp:150] Setting up relu3_1
I0602 02:30:26.068893 24116 net.cpp:157] Top shape: 1 256 56 56 (802816)
I0602 02:30:26.068897 24116 net.cpp:165] Memory required for data: 88309760
I0602 02:30:26.068902 24116 layer_factory.hpp:77] Creating layer conv3_2
I0602 02:30:26.068912 24116 net.cpp:106] Creating Layer conv3_2
I0602 02:30:26.068915 24116 net.cpp:454] conv3_2 <- conv3_1
I0602 02:30:26.068922 24116 net.cpp:411] conv3_2 -> conv3_2
I0602 02:30:26.071704 24116 net.cpp:150] Setting up conv3_2
I0602 02:30:26.071722 24116 net.cpp:157] Top shape: 1 256 56 56 (802816)
I0602 02:30:26.071727 24116 net.cpp:165] Memory required for data: 91521024
I0602 02:30:26.071735 24116 layer_factory.hpp:77] Creating layer relu3_2
I0602 02:30:26.071744 24116 net.cpp:106] Creating Layer relu3_2
I0602 02:30:26.071748 24116 net.cpp:454] relu3_2 <- conv3_2
I0602 02:30:26.071755 24116 net.cpp:397] relu3_2 -> conv3_2 (in-place)
I0602 02:30:26.071763 24116 net.cpp:150] Setting up relu3_2
I0602 02:30:26.071768 24116 net.cpp:157] Top shape: 1 256 56 56 (802816)
I0602 02:30:26.071772 24116 net.cpp:165] Memory required for data: 94732288
I0602 02:30:26.071776 24116 layer_factory.hpp:77] Creating layer conv3_3
I0602 02:30:26.071786 24116 net.cpp:106] Creating Layer conv3_3
I0602 02:30:26.071791 24116 net.cpp:454] conv3_3 <- conv3_2
I0602 02:30:26.071797 24116 net.cpp:411] conv3_3 -> conv3_3
I0602 02:30:26.077129 24116 net.cpp:150] Setting up conv3_3
I0602 02:30:26.077152 24116 net.cpp:157] Top shape: 1 256 56 56 (802816)
I0602 02:30:26.077157 24116 net.cpp:165] Memory required for data: 97943552
I0602 02:30:26.077165 24116 layer_factory.hpp:77] Creating layer relu3_3
I0602 02:30:26.077174 24116 net.cpp:106] Creating Layer relu3_3
I0602 02:30:26.077178 24116 net.cpp:454] relu3_3 <- conv3_3
I0602 02:30:26.077185 24116 net.cpp:397] relu3_3 -> conv3_3 (in-place)
I0602 02:30:26.077193 24116 net.cpp:150] Setting up relu3_3
I0602 02:30:26.077199 24116 net.cpp:157] Top shape: 1 256 56 56 (802816)
I0602 02:30:26.077203 24116 net.cpp:165] Memory required for data: 101154816
I0602 02:30:26.077208 24116 layer_factory.hpp:77] Creating layer pool3
I0602 02:30:26.077219 24116 net.cpp:106] Creating Layer pool3
I0602 02:30:26.077222 24116 net.cpp:454] pool3 <- conv3_3
I0602 02:30:26.077229 24116 net.cpp:411] pool3 -> pool3
I0602 02:30:26.077275 24116 net.cpp:150] Setting up pool3
I0602 02:30:26.077284 24116 net.cpp:157] Top shape: 1 256 28 28 (200704)
I0602 02:30:26.077288 24116 net.cpp:165] Memory required for data: 101957632
I0602 02:30:26.077292 24116 layer_factory.hpp:77] Creating layer conv4_1
I0602 02:30:26.077303 24116 net.cpp:106] Creating Layer conv4_1
I0602 02:30:26.077307 24116 net.cpp:454] conv4_1 <- pool3
I0602 02:30:26.077313 24116 net.cpp:411] conv4_1 -> conv4_1
I0602 02:30:26.098693 24116 net.cpp:150] Setting up conv4_1
I0602 02:30:26.098762 24116 net.cpp:157] Top shape: 1 512 28 28 (401408)
I0602 02:30:26.098770 24116 net.cpp:165] Memory required for data: 103563264
I0602 02:30:26.098789 24116 layer_factory.hpp:77] Creating layer relu4_1
I0602 02:30:26.098858 24116 net.cpp:106] Creating Layer relu4_1
I0602 02:30:26.098870 24116 net.cpp:454] relu4_1 <- conv4_1
I0602 02:30:26.098893 24116 net.cpp:397] relu4_1 -> conv4_1 (in-place)
I0602 02:30:26.098912 24116 net.cpp:150] Setting up relu4_1
I0602 02:30:26.098920 24116 net.cpp:157] Top shape: 1 512 28 28 (401408)
I0602 02:30:26.098927 24116 net.cpp:165] Memory required for data: 105168896
I0602 02:30:26.098933 24116 layer_factory.hpp:77] Creating layer conv4_2
I0602 02:30:26.098954 24116 net.cpp:106] Creating Layer conv4_2
I0602 02:30:26.098963 24116 net.cpp:454] conv4_2 <- conv4_1
I0602 02:30:26.098974 24116 net.cpp:411] conv4_2 -> conv4_2
I0602 02:30:26.108724 24116 net.cpp:150] Setting up conv4_2
I0602 02:30:26.108774 24116 net.cpp:157] Top shape: 1 512 28 28 (401408)
I0602 02:30:26.108783 24116 net.cpp:165] Memory required for data: 106774528
I0602 02:30:26.108808 24116 layer_factory.hpp:77] Creating layer relu4_2
I0602 02:30:26.108832 24116 net.cpp:106] Creating Layer relu4_2
I0602 02:30:26.108840 24116 net.cpp:454] relu4_2 <- conv4_2
I0602 02:30:26.108865 24116 net.cpp:397] relu4_2 -> conv4_2 (in-place)
I0602 02:30:26.108881 24116 net.cpp:150] Setting up relu4_2
I0602 02:30:26.108892 24116 net.cpp:157] Top shape: 1 512 28 28 (401408)
I0602 02:30:26.108899 24116 net.cpp:165] Memory required for data: 108380160
I0602 02:30:26.108906 24116 layer_factory.hpp:77] Creating layer conv4_3
I0602 02:30:26.108919 24116 net.cpp:106] Creating Layer conv4_3
I0602 02:30:26.108930 24116 net.cpp:454] conv4_3 <- conv4_2
I0602 02:30:26.108940 24116 net.cpp:411] conv4_3 -> conv4_3
I0602 02:30:26.117676 24116 net.cpp:150] Setting up conv4_3
I0602 02:30:26.117717 24116 net.cpp:157] Top shape: 1 512 28 28 (401408)
I0602 02:30:26.117724 24116 net.cpp:165] Memory required for data: 109985792
I0602 02:30:26.117738 24116 layer_factory.hpp:77] Creating layer relu4_3
I0602 02:30:26.117749 24116 net.cpp:106] Creating Layer relu4_3
I0602 02:30:26.117758 24116 net.cpp:454] relu4_3 <- conv4_3
I0602 02:30:26.117779 24116 net.cpp:397] relu4_3 -> conv4_3 (in-place)
I0602 02:30:26.117801 24116 net.cpp:150] Setting up relu4_3
I0602 02:30:26.117811 24116 net.cpp:157] Top shape: 1 512 28 28 (401408)
I0602 02:30:26.117817 24116 net.cpp:165] Memory required for data: 111591424
I0602 02:30:26.117823 24116 layer_factory.hpp:77] Creating layer pool4
I0602 02:30:26.117841 24116 net.cpp:106] Creating Layer pool4
I0602 02:30:26.117846 24116 net.cpp:454] pool4 <- conv4_3
I0602 02:30:26.117858 24116 net.cpp:411] pool4 -> pool4
I0602 02:30:26.117923 24116 net.cpp:150] Setting up pool4
I0602 02:30:26.117933 24116 net.cpp:157] Top shape: 1 512 14 14 (100352)
I0602 02:30:26.117938 24116 net.cpp:165] Memory required for data: 111992832
I0602 02:30:26.117944 24116 layer_factory.hpp:77] Creating layer conv5_1
I0602 02:30:26.117960 24116 net.cpp:106] Creating Layer conv5_1
I0602 02:30:26.117969 24116 net.cpp:454] conv5_1 <- pool4
I0602 02:30:26.117980 24116 net.cpp:411] conv5_1 -> conv5_1
I0602 02:30:26.126312 24116 net.cpp:150] Setting up conv5_1
I0602 02:30:26.126354 24116 net.cpp:157] Top shape: 1 512 14 14 (100352)
I0602 02:30:26.126360 24116 net.cpp:165] Memory required for data: 112394240
I0602 02:30:26.126374 24116 layer_factory.hpp:77] Creating layer relu5_1
I0602 02:30:26.126389 24116 net.cpp:106] Creating Layer relu5_1
I0602 02:30:26.126396 24116 net.cpp:454] relu5_1 <- conv5_1
I0602 02:30:26.126415 24116 net.cpp:397] relu5_1 -> conv5_1 (in-place)
I0602 02:30:26.126427 24116 net.cpp:150] Setting up relu5_1
I0602 02:30:26.126435 24116 net.cpp:157] Top shape: 1 512 14 14 (100352)
I0602 02:30:26.126441 24116 net.cpp:165] Memory required for data: 112795648
I0602 02:30:26.126446 24116 layer_factory.hpp:77] Creating layer conv5_2
I0602 02:30:26.126462 24116 net.cpp:106] Creating Layer conv5_2
I0602 02:30:26.126471 24116 net.cpp:454] conv5_2 <- conv5_1
I0602 02:30:26.126479 24116 net.cpp:411] conv5_2 -> conv5_2
I0602 02:30:26.134907 24116 net.cpp:150] Setting up conv5_2
I0602 02:30:26.134949 24116 net.cpp:157] Top shape: 1 512 14 14 (100352)
I0602 02:30:26.134956 24116 net.cpp:165] Memory required for data: 113197056
I0602 02:30:26.134971 24116 layer_factory.hpp:77] Creating layer relu5_2
I0602 02:30:26.134997 24116 net.cpp:106] Creating Layer relu5_2
I0602 02:30:26.135005 24116 net.cpp:454] relu5_2 <- conv5_2
I0602 02:30:26.135015 24116 net.cpp:397] relu5_2 -> conv5_2 (in-place)
I0602 02:30:26.135027 24116 net.cpp:150] Setting up relu5_2
I0602 02:30:26.135035 24116 net.cpp:157] Top shape: 1 512 14 14 (100352)
I0602 02:30:26.135040 24116 net.cpp:165] Memory required for data: 113598464
I0602 02:30:26.135044 24116 layer_factory.hpp:77] Creating layer conv5_3
I0602 02:30:26.135062 24116 net.cpp:106] Creating Layer conv5_3
I0602 02:30:26.135094 24116 net.cpp:454] conv5_3 <- conv5_2
I0602 02:30:26.135105 24116 net.cpp:411] conv5_3 -> conv5_3
I0602 02:30:26.143122 24116 net.cpp:150] Setting up conv5_3
I0602 02:30:26.143167 24116 net.cpp:157] Top shape: 1 512 14 14 (100352)
I0602 02:30:26.143184 24116 net.cpp:165] Memory required for data: 113999872
I0602 02:30:26.143198 24116 layer_factory.hpp:77] Creating layer relu5_3
I0602 02:30:26.143210 24116 net.cpp:106] Creating Layer relu5_3
I0602 02:30:26.143216 24116 net.cpp:454] relu5_3 <- conv5_3
I0602 02:30:26.143225 24116 net.cpp:397] relu5_3 -> conv5_3 (in-place)
I0602 02:30:26.143246 24116 net.cpp:150] Setting up relu5_3
I0602 02:30:26.143254 24116 net.cpp:157] Top shape: 1 512 14 14 (100352)
I0602 02:30:26.143259 24116 net.cpp:165] Memory required for data: 114401280
I0602 02:30:26.143275 24116 layer_factory.hpp:77] Creating layer conv5_3_relu5_3_0_split
I0602 02:30:26.143292 24116 net.cpp:106] Creating Layer conv5_3_relu5_3_0_split
I0602 02:30:26.143299 24116 net.cpp:454] conv5_3_relu5_3_0_split <- conv5_3
I0602 02:30:26.143309 24116 net.cpp:411] conv5_3_relu5_3_0_split -> conv5_3_relu5_3_0_split_0
I0602 02:30:26.143319 24116 net.cpp:411] conv5_3_relu5_3_0_split -> conv5_3_relu5_3_0_split_1
I0602 02:30:26.143393 24116 net.cpp:150] Setting up conv5_3_relu5_3_0_split
I0602 02:30:26.143404 24116 net.cpp:157] Top shape: 1 512 14 14 (100352)
I0602 02:30:26.143410 24116 net.cpp:157] Top shape: 1 512 14 14 (100352)
I0602 02:30:26.143415 24116 net.cpp:165] Memory required for data: 115204096
I0602 02:30:26.143420 24116 layer_factory.hpp:77] Creating layer rpn_conv/3x3
I0602 02:30:26.143440 24116 net.cpp:106] Creating Layer rpn_conv/3x3
I0602 02:30:26.143447 24116 net.cpp:454] rpn_conv/3x3 <- conv5_3_relu5_3_0_split_0
I0602 02:30:26.143456 24116 net.cpp:411] rpn_conv/3x3 -> rpn/output
I0602 02:30:26.241257 24116 net.cpp:150] Setting up rpn_conv/3x3
I0602 02:30:26.241315 24116 net.cpp:157] Top shape: 1 512 14 14 (100352)
I0602 02:30:26.241320 24116 net.cpp:165] Memory required for data: 115605504
I0602 02:30:26.241334 24116 layer_factory.hpp:77] Creating layer rpn_relu/3x3
I0602 02:30:26.241355 24116 net.cpp:106] Creating Layer rpn_relu/3x3
I0602 02:30:26.241374 24116 net.cpp:454] rpn_relu/3x3 <- rpn/output
I0602 02:30:26.241385 24116 net.cpp:397] rpn_relu/3x3 -> rpn/output (in-place)
I0602 02:30:26.241397 24116 net.cpp:150] Setting up rpn_relu/3x3
I0602 02:30:26.241402 24116 net.cpp:157] Top shape: 1 512 14 14 (100352)
I0602 02:30:26.241415 24116 net.cpp:165] Memory required for data: 116006912
I0602 02:30:26.241420 24116 layer_factory.hpp:77] Creating layer rpn/output_rpn_relu/3x3_0_split
I0602 02:30:26.241439 24116 net.cpp:106] Creating Layer rpn/output_rpn_relu/3x3_0_split
I0602 02:30:26.241443 24116 net.cpp:454] rpn/output_rpn_relu/3x3_0_split <- rpn/output
I0602 02:30:26.241452 24116 net.cpp:411] rpn/output_rpn_relu/3x3_0_split -> rpn/output_rpn_relu/3x3_0_split_0
I0602 02:30:26.241461 24116 net.cpp:411] rpn/output_rpn_relu/3x3_0_split -> rpn/output_rpn_relu/3x3_0_split_1
I0602 02:30:26.241510 24116 net.cpp:150] Setting up rpn/output_rpn_relu/3x3_0_split
I0602 02:30:26.241519 24116 net.cpp:157] Top shape: 1 512 14 14 (100352)
I0602 02:30:26.241524 24116 net.cpp:157] Top shape: 1 512 14 14 (100352)
I0602 02:30:26.241528 24116 net.cpp:165] Memory required for data: 116809728
I0602 02:30:26.241533 24116 layer_factory.hpp:77] Creating layer rpn_cls_score
I0602 02:30:26.241559 24116 net.cpp:106] Creating Layer rpn_cls_score
I0602 02:30:26.241564 24116 net.cpp:454] rpn_cls_score <- rpn/output_rpn_relu/3x3_0_split_0
I0602 02:30:26.241571 24116 net.cpp:411] rpn_cls_score -> rpn_cls_score
I0602 02:30:26.242211 24116 net.cpp:150] Setting up rpn_cls_score
I0602 02:30:26.242223 24116 net.cpp:157] Top shape: 1 18 14 14 (3528)
I0602 02:30:26.242228 24116 net.cpp:165] Memory required for data: 116823840
I0602 02:30:26.242242 24116 layer_factory.hpp:77] Creating layer rpn_bbox_pred
I0602 02:30:26.242255 24116 net.cpp:106] Creating Layer rpn_bbox_pred
I0602 02:30:26.242259 24116 net.cpp:454] rpn_bbox_pred <- rpn/output_rpn_relu/3x3_0_split_1
I0602 02:30:26.242270 24116 net.cpp:411] rpn_bbox_pred -> rpn_bbox_pred
I0602 02:30:26.243268 24116 net.cpp:150] Setting up rpn_bbox_pred
I0602 02:30:26.243278 24116 net.cpp:157] Top shape: 1 36 14 14 (7056)
I0602 02:30:26.243281 24116 net.cpp:165] Memory required for data: 116852064
I0602 02:30:26.243296 24116 layer_factory.hpp:77] Creating layer rpn_cls_score_reshape
I0602 02:30:26.243307 24116 net.cpp:106] Creating Layer rpn_cls_score_reshape
I0602 02:30:26.243312 24116 net.cpp:454] rpn_cls_score_reshape <- rpn_cls_score
I0602 02:30:26.243321 24116 net.cpp:411] rpn_cls_score_reshape -> rpn_cls_score_reshape
I0602 02:30:26.243379 24116 net.cpp:150] Setting up rpn_cls_score_reshape
I0602 02:30:26.243388 24116 net.cpp:157] Top shape: 1 2 126 14 (3528)
I0602 02:30:26.243392 24116 net.cpp:165] Memory required for data: 116866176
I0602 02:30:26.243396 24116 layer_factory.hpp:77] Creating layer rpn_cls_prob
I0602 02:30:26.243407 24116 net.cpp:106] Creating Layer rpn_cls_prob
I0602 02:30:26.243412 24116 net.cpp:454] rpn_cls_prob <- rpn_cls_score_reshape
I0602 02:30:26.243417 24116 net.cpp:411] rpn_cls_prob -> rpn_cls_prob
I0602 02:30:26.243489 24116 net.cpp:150] Setting up rpn_cls_prob
I0602 02:30:26.243499 24116 net.cpp:157] Top shape: 1 2 126 14 (3528)
I0602 02:30:26.243504 24116 net.cpp:165] Memory required for data: 116880288
I0602 02:30:26.243507 24116 layer_factory.hpp:77] Creating layer rpn_cls_prob_reshape
I0602 02:30:26.243515 24116 net.cpp:106] Creating Layer rpn_cls_prob_reshape
I0602 02:30:26.243518 24116 net.cpp:454] rpn_cls_prob_reshape <- rpn_cls_prob
I0602 02:30:26.243526 24116 net.cpp:411] rpn_cls_prob_reshape -> rpn_cls_prob_reshape
I0602 02:30:26.243549 24116 net.cpp:150] Setting up rpn_cls_prob_reshape
I0602 02:30:26.243557 24116 net.cpp:157] Top shape: 1 18 14 14 (3528)
I0602 02:30:26.243561 24116 net.cpp:165] Memory required for data: 116894400
I0602 02:30:26.243564 24116 layer_factory.hpp:77] Creating layer proposal
I0602 02:30:26.244458 24116 net.cpp:106] Creating Layer proposal
I0602 02:30:26.244474 24116 net.cpp:454] proposal <- rpn_cls_prob_reshape
I0602 02:30:26.244493 24116 net.cpp:454] proposal <- rpn_bbox_pred
I0602 02:30:26.244498 24116 net.cpp:454] proposal <- im_info
I0602 02:30:26.244505 24116 net.cpp:411] proposal -> rois
I0602 02:30:26.245774 24116 net.cpp:150] Setting up proposal
I0602 02:30:26.245792 24116 net.cpp:157] Top shape: 1 5 (5)
I0602 02:30:26.245808 24116 net.cpp:165] Memory required for data: 116894420
I0602 02:30:26.245813 24116 layer_factory.hpp:77] Creating layer roi_pool5
I0602 02:30:26.245822 24116 net.cpp:106] Creating Layer roi_pool5
I0602 02:30:26.245828 24116 net.cpp:454] roi_pool5 <- conv5_3_relu5_3_0_split_1
I0602 02:30:26.245836 24116 net.cpp:454] roi_pool5 <- rois
I0602 02:30:26.245852 24116 net.cpp:411] roi_pool5 -> pool5
I0602 02:30:26.245862 24116 roi_pooling_layer.cpp:30] Spatial scale: 0.0625
I0602 02:30:26.245932 24116 net.cpp:150] Setting up roi_pool5
I0602 02:30:26.245941 24116 net.cpp:157] Top shape: 1 512 7 7 (25088)
I0602 02:30:26.245945 24116 net.cpp:165] Memory required for data: 116994772
I0602 02:30:26.245949 24116 layer_factory.hpp:77] Creating layer fc6
I0602 02:30:26.245960 24116 net.cpp:106] Creating Layer fc6
I0602 02:30:26.245965 24116 net.cpp:454] fc6 <- pool5
I0602 02:30:26.245971 24116 net.cpp:411] fc6 -> fc6
I0602 02:30:26.540067 24116 net.cpp:150] Setting up fc6
I0602 02:30:26.540133 24116 net.cpp:157] Top shape: 1 4096 (4096)
I0602 02:30:26.540139 24116 net.cpp:165] Memory required for data: 117011156
I0602 02:30:26.540166 24116 layer_factory.hpp:77] Creating layer relu6
I0602 02:30:26.540191 24116 net.cpp:106] Creating Layer relu6
I0602 02:30:26.540199 24116 net.cpp:454] relu6 <- fc6
I0602 02:30:26.540207 24116 net.cpp:397] relu6 -> fc6 (in-place)
I0602 02:30:26.540220 24116 net.cpp:150] Setting up relu6
I0602 02:30:26.540225 24116 net.cpp:157] Top shape: 1 4096 (4096)
I0602 02:30:26.540237 24116 net.cpp:165] Memory required for data: 117027540
I0602 02:30:26.540241 24116 layer_factory.hpp:77] Creating layer drop6
I0602 02:30:26.540269 24116 net.cpp:106] Creating Layer drop6
I0602 02:30:26.540274 24116 net.cpp:454] drop6 <- fc6
I0602 02:30:26.540279 24116 net.cpp:397] drop6 -> fc6 (in-place)
I0602 02:30:26.540309 24116 net.cpp:150] Setting up drop6
I0602 02:30:26.540318 24116 net.cpp:157] Top shape: 1 4096 (4096)
I0602 02:30:26.540323 24116 net.cpp:165] Memory required for data: 117043924
I0602 02:30:26.540326 24116 layer_factory.hpp:77] Creating layer fc7
I0602 02:30:26.540338 24116 net.cpp:106] Creating Layer fc7
I0602 02:30:26.540344 24116 net.cpp:454] fc7 <- fc6
I0602 02:30:26.540351 24116 net.cpp:411] fc7 -> fc7
I0602 02:30:26.589218 24116 net.cpp:150] Setting up fc7
I0602 02:30:26.589268 24116 net.cpp:157] Top shape: 1 4096 (4096)
I0602 02:30:26.589274 24116 net.cpp:165] Memory required for data: 117060308
I0602 02:30:26.589290 24116 layer_factory.hpp:77] Creating layer relu7
I0602 02:30:26.589304 24116 net.cpp:106] Creating Layer relu7
I0602 02:30:26.589311 24116 net.cpp:454] relu7 <- fc7
I0602 02:30:26.589320 24116 net.cpp:397] relu7 -> fc7 (in-place)
I0602 02:30:26.589340 24116 net.cpp:150] Setting up relu7
I0602 02:30:26.589345 24116 net.cpp:157] Top shape: 1 4096 (4096)
I0602 02:30:26.589349 24116 net.cpp:165] Memory required for data: 117076692
I0602 02:30:26.589354 24116 layer_factory.hpp:77] Creating layer drop7
I0602 02:30:26.589362 24116 net.cpp:106] Creating Layer drop7
I0602 02:30:26.589367 24116 net.cpp:454] drop7 <- fc7
I0602 02:30:26.589377 24116 net.cpp:397] drop7 -> fc7 (in-place)
I0602 02:30:26.589412 24116 net.cpp:150] Setting up drop7
I0602 02:30:26.589421 24116 net.cpp:157] Top shape: 1 4096 (4096)
I0602 02:30:26.589424 24116 net.cpp:165] Memory required for data: 117093076
I0602 02:30:26.589428 24116 layer_factory.hpp:77] Creating layer fc7_drop7_0_split
I0602 02:30:26.589437 24116 net.cpp:106] Creating Layer fc7_drop7_0_split
I0602 02:30:26.589440 24116 net.cpp:454] fc7_drop7_0_split <- fc7
I0602 02:30:26.589447 24116 net.cpp:411] fc7_drop7_0_split -> fc7_drop7_0_split_0
I0602 02:30:26.589454 24116 net.cpp:411] fc7_drop7_0_split -> fc7_drop7_0_split_1
I0602 02:30:26.589501 24116 net.cpp:150] Setting up fc7_drop7_0_split
I0602 02:30:26.589509 24116 net.cpp:157] Top shape: 1 4096 (4096)
I0602 02:30:26.589514 24116 net.cpp:157] Top shape: 1 4096 (4096)
I0602 02:30:26.589519 24116 net.cpp:165] Memory required for data: 117125844
I0602 02:30:26.589522 24116 layer_factory.hpp:77] Creating layer new_cls_score
I0602 02:30:26.589534 24116 net.cpp:106] Creating Layer new_cls_score
I0602 02:30:26.589537 24116 net.cpp:454] new_cls_score <- fc7_drop7_0_split_0
I0602 02:30:26.589548 24116 net.cpp:411] new_cls_score -> new_cls_score
I0602 02:30:26.589992 24116 net.cpp:150] Setting up new_cls_score
I0602 02:30:26.590000 24116 net.cpp:157] Top shape: 1 2 (2)
I0602 02:30:26.590004 24116 net.cpp:165] Memory required for data: 117125852
I0602 02:30:26.590013 24116 layer_factory.hpp:77] Creating layer new_bbox_pred
I0602 02:30:26.590025 24116 net.cpp:106] Creating Layer new_bbox_pred
I0602 02:30:26.590029 24116 net.cpp:454] new_bbox_pred <- fc7_drop7_0_split_1
I0602 02:30:26.590035 24116 net.cpp:411] new_bbox_pred -> new_bbox_pred
I0602 02:30:26.591428 24116 net.cpp:150] Setting up new_bbox_pred
I0602 02:30:26.591439 24116 net.cpp:157] Top shape: 1 8 (8)
I0602 02:30:26.591442 24116 net.cpp:165] Memory required for data: 117125884
I0602 02:30:26.591449 24116 layer_factory.hpp:77] Creating layer cls_prob
I0602 02:30:26.591456 24116 net.cpp:106] Creating Layer cls_prob
I0602 02:30:26.591460 24116 net.cpp:454] cls_prob <- new_cls_score
I0602 02:30:26.591467 24116 net.cpp:411] cls_prob -> cls_prob
I0602 02:30:26.591534 24116 net.cpp:150] Setting up cls_prob
I0602 02:30:26.591542 24116 net.cpp:157] Top shape: 1 2 (2)
I0602 02:30:26.591547 24116 net.cpp:165] Memory required for data: 117125892
I0602 02:30:26.591550 24116 net.cpp:228] cls_prob does not need backward computation.
I0602 02:30:26.591554 24116 net.cpp:228] new_bbox_pred does not need backward computation.
I0602 02:30:26.591558 24116 net.cpp:228] new_cls_score does not need backward computation.
I0602 02:30:26.591563 24116 net.cpp:228] fc7_drop7_0_split does not need backward computation.
…
