…
snapshot_prefix: "vgg16_faster_rcnn"
average_loss: 100
iter_size: 2
I0529 13:42:00.524287 17405 solver.cpp:81] Creating training net from train_net file: models/pascal_voc/VGG16/faster_rcnn_end2end/train.prototxt
I0529 13:42:00.525488 17405 net.cpp:49] Initializing net from parameters:
name: "VGG_ILSVRC_16_layers"
state {
  phase: TRAIN
}
layer {
  name: "input-data"
  type: "Python"
  top: "data"
  top: "im_info"
  top: "gt_boxes"
  python_param {
    module: "roi_data_layer.layer"
    layer: "RoIDataLayer"
    param_str: "\'num_classes\': 21"
  }
}
layer {
  name: "conv1_1"
  type: "Convolution"
  bottom: "data"
  top: "conv1_1"
  param {
    lr_mult: 0
    decay_mult: 0
  }
  param {
    lr_mult: 0
    decay_mult: 0
  }
  convolution_param {
    num_output: 64
    pad: 1
    kernel_size: 3
  }
}
layer {
  name: "relu1_1"
  type: "ReLU"
  bottom: "conv1_1"
  top: "conv1_1"
}
layer {
  name: "conv1_2"
  type: "Convolution"
  bottom: "conv1_1"
  top: "conv1_2"
  param {
    lr_mult: 0
    decay_mult: 0
  }
  param {
    lr_mult: 0
    decay_mult: 0
  }
  convolution_param {
    num_output: 64
    pad: 1
    kernel_size: 3
  }
}
layer {
  name: "relu1_2"
  type: "ReLU"
  bottom: "conv1_2"
  top: "conv1_2"
}
layer {
  name: "pool1"
  type: "Pooling"
  bottom: "conv1_2"
  top: "pool1"
  pooling_param {
    pool: MAX
    kernel_size: 2
    stride: 2
  }
}
layer {
  name: "conv2_1"
  type: "Convolution"
  bottom: "pool1"
  top: "conv2_1"
  param {
    lr_mult: 0
    decay_mult: 0
  }
  param {
    lr_mult: 0
    decay_mult: 0
  }
  convolution_param {
    num_output: 128
    pad: 1
    kernel_size: 3
  }
}
layer {
  name: "relu2_1"
  type: "ReLU"
  bottom: "conv2_1"
  top: "conv2_1"
}
layer {
  name: "conv2_2"
  type: "Convolution"
  bottom: "conv2_1"
  top: "conv2_2"
  param {
    lr_mult: 0
    decay_mult: 0
  }
  param {
    lr_mult: 0
    decay_mult: 0
  }
  convolution_param {
    num_output: 128
    pad: 1
    kernel_size: 3
  }
}
layer {
  name: "relu2_2"
  type: "ReLU"
  bottom: "conv2_2"
  top: "conv2_2"
}
layer {
  name: "pool2"
  type: "Pooling"
  bottom: "conv2_2"
  top: "pool2"
  pooling_param {
    pool: MAX
    kernel_size: 2
    stride: 2
  }
}
layer {
  name: "conv3_1"
  type: "Convolution"
  bottom: "pool2"
  top: "conv3_1"
  param {
    lr_mult: 1
  }
  param {
    lr_mult: 2
  }
  convolution_param {
    num_output: 256
    pad: 1
    kernel_size: 3
  }
}
layer {
  name: "relu3_1"
  type: "ReLU"
  bottom: "conv3_1"
  top: "conv3_1"
}
layer {
  name: "conv3_2"
  type: "Convolution"
  bottom: "conv3_1"
  top: "conv3_2"
  param {
    lr_mult: 1
  }
  param {
    lr_mult: 2
  }
  convolution_param {
    num_output: 256
    pad: 1
    kernel_size: 3
  }
}
layer {
  name: "relu3_2"
  type: "ReLU"
  bottom: "conv3_2"
  top: "conv3_2"
}
layer {
  name: "conv3_3"
  type: "Convolution"
  bottom: "conv3_2"
  top: "conv3_3"
  param {
    lr_mult: 1
  }
  param {
    lr_mult: 2
  }
  convolution_param {
    num_output: 256
    pad: 1
    kernel_size: 3
  }
}
layer {
  name: "relu3_3"
  type: "ReLU"
  bottom: "conv3_3"
  top: "conv3_3"
}
layer {
  name: "pool3"
  type: "Pooling"
  bottom: "conv3_3"
  top: "pool3"
  pooling_param {
    pool: MAX
    kernel_size: 2
    stride: 2
  }
}
layer {
  name: "conv4_1"
  type: "Convolution"
  bottom: "pool3"
  top: "conv4_1"
  param {
    lr_mult: 1
  }
  param {
    lr_mult: 2
  }
  convolution_param {
    num_output: 512
    pad: 1
    kernel_size: 3
  }
}
layer {
  name: "relu4_1"
  type: "ReLU"
  bottom: "conv4_1"
  top: "conv4_1"
}
layer {
  name: "conv4_2"
  type: "Convolution"
  bottom: "conv4_1"
  top: "conv4_2"
  param {
    lr_mult: 1
  }
  param {
    lr_mult: 2
  }
  convolution_param {
    num_output: 512
    pad: 1
    kernel_size: 3
  }
}
layer {
  name: "relu4_2"
  type: "ReLU"
  bottom: "conv4_2"
  top: "conv4_2"
}
layer {
  name: "conv4_3"
  type: "Convolution"
  bottom: "conv4_2"
  top: "conv4_3"
  param {
    lr_mult: 1
  }
  param {
    lr_mult: 2
  }
  convolution_param {
    num_output: 512
    pad: 1
    kernel_size: 3
  }
}
layer {
  name: "relu4_3"
  type: "ReLU"
  bottom: "conv4_3"
  top: "conv4_3"
}
layer {
  name: "pool4"
  type: "Pooling"
  bottom: "conv4_3"
  top: "pool4"
  pooling_param {
    pool: MAX
    kernel_size: 2
    stride: 2
  }
}
layer {
  name: "conv5_1"
  type: "Convolution"
  bottom: "pool4"
  top: "conv5_1"
  param {
    lr_mult: 1
  }
  param {
    lr_mult: 2
  }
  convolution_param {
    num_output: 512
    pad: 1
    kernel_size: 3
  }
}
layer {
  name: "relu5_1"
  type: "ReLU"
  bottom: "conv5_1"
  top: "conv5_1"
}
layer {
  name: "conv5_2"
  type: "Convolution"
  bottom: "conv5_1"
  top: "conv5_2"
  param {
    lr_mult: 1
  }
  param {
    lr_mult: 2
  }
  convolution_param {
    num_output: 512
    pad: 1
    kernel_size: 3
  }
}
layer {
  name: "relu5_2"
  type: "ReLU"
  bottom: "conv5_2"
  top: "conv5_2"
}
layer {
  name: "conv5_3"
  type: "Convolution"
  bottom: "conv5_2"
  top: "conv5_3"
  param {
    lr_mult: 1
  }
  param {
    lr_mult: 2
  }
  convolution_param {
    num_output: 512
    pad: 1
    kernel_size: 3
  }
}
layer {
  name: "relu5_3"
  type: "ReLU"
  bottom: "conv5_3"
  top: "conv5_3"
}
layer {
  name: "rpn_conv/3x3"
  type: "Convolution"
  bottom: "conv5_3"
  top: "rpn/output"
  param {
    lr_mult: 1
  }
  param {
    lr_mult: 2
  }
  convolution_param {
    num_output: 512
    pad: 1
    kernel_size: 3
    stride: 1
    weight_filler {
      type: "gaussian"
      std: 0.01
    }
    bias_filler {
      type: "constant"
      value: 0
    }
  }
}
layer {
  name: "rpn_relu/3x3"
  type: "ReLU"
  bottom: "rpn/output"
  top: "rpn/output"
}
layer {
  name: "rpn_cls_score"
  type: "Convolution"
  bottom: "rpn/output"
  top: "rpn_cls_score"
  param {
    lr_mult: 1
  }
  param {
    lr_mult: 2
  }
  convolution_param {
    num_output: 18
    pad: 0
    kernel_size: 1
    stride: 1
    weight_filler {
      type: "gaussian"
      std: 0.01
    }
    bias_filler {
      type: "constant"
      value: 0
    }
  }
}
layer {
  name: "rpn_bbox_pred"
  type: "Convolution"
  bottom: "rpn/output"
  top: "rpn_bbox_pred"
  param {
    lr_mult: 1
  }
  param {
    lr_mult: 2
  }
  convolution_param {
    num_output: 36
    pad: 0
    kernel_size: 1
    stride: 1
    weight_filler {
      type: "gaussian"
      std: 0.01
    }
    bias_filler {
      type: "constant"
      value: 0
    }
  }
}
layer {
  name: "rpn_cls_score_reshape"
  type: "Reshape"
  bottom: "rpn_cls_score"
  top: "rpn_cls_score_reshape"
  reshape_param {
    shape {
      dim: 0
      dim: 2
      dim: -1
      dim: 0
    }
  }
}
layer {
  name: "rpn-data"
  type: "Python"
  bottom: "rpn_cls_score"
  bottom: "gt_boxes"
  bottom: "im_info"
  bottom: "data"
  top: "rpn_labels"
  top: "rpn_bbox_targets"
  top: "rpn_bbox_inside_weights"
  top: "rpn_bbox_outside_weights"
  python_param {
    module: "rpn.anchor_target_layer"
    layer: "AnchorTargetLayer"
    param_str: "\'feat_stride\': 16"
  }
}
layer {
  name: "rpn_loss_cls"
  type: "SoftmaxWithLoss"
  bottom: "rpn_cls_score_reshape"
  bottom: "rpn_labels"
  top: "rpn_cls_loss"
  loss_weight: 1
  propagate_down: true
  propagate_down: false
  loss_param {
    ignore_label: -1
    normalize: true
  }
}
layer {
  name: "rpn_loss_bbox"
  type: "SmoothL1Loss"
  bottom: "rpn_bbox_pred"
  bottom: "rpn_bbox_targets"
  bottom: "rpn_bbox_inside_weights"
  bottom: "rpn_bbox_outside_weights"
  top: "rpn_loss_bbox"
  loss_weight: 1
  smooth_l1_loss_param {
    sigma: 3
  }
}
layer {
  name: "rpn_cls_prob"
  type: "Softmax"
  bottom: "rpn_cls_score_reshape"
  top: "rpn_cls_prob"
}
layer {
  name: "rpn_cls_prob_reshape"
  type: "Reshape"
  bottom: "rpn_cls_prob"
  top: "rpn_cls_prob_reshape"
  reshape_param {
    shape {
      dim: 0
      dim: 18
      dim: -1
      dim: 0
    }
  }
}
layer {
  name: "proposal"
  type: "Python"
  bottom: "rpn_cls_prob_reshape"
  bottom: "rpn_bbox_pred"
  bottom: "im_info"
  top: "rpn_rois"
  python_param {
    module: "rpn.proposal_layer"
    layer: "ProposalLayer"
    param_str: "\'feat_stride\': 16"
  }
}
layer {
  name: "roi-data"
  type: "Python"
  bottom: "rpn_rois"
  bottom: "gt_boxes"
  top: "rois"
  top: "labels"
  top: "bbox_targets"
  top: "bbox_inside_weights"
  top: "bbox_outside_weights"
  python_param {
    module: "rpn.proposal_target_layer"
    layer: "ProposalTargetLayer"
    param_str: "\'num_classes\': 21"
  }
}
layer {
  name: "roi_pool5"
  type: "ROIPooling"
  bottom: "conv5_3"
  bottom: "rois"
  top: "pool5"
  roi_pooling_param {
    pooled_h: 7
    pooled_w: 7
    spatial_scale: 0.0625
  }
}
layer {
  name: "fc6"
  type: "InnerProduct"
  bottom: "pool5"
  top: "fc6"
  param {
    lr_mult: 1
  }
  param {
    lr_mult: 2
  }
  inner_product_param {
    num_output: 4096
  }
}
layer {
  name: "relu6"
  type: "ReLU"
  bottom: "fc6"
  top: "fc6"
}
layer {
  name: "drop6"
  type: "Dropout"
  bottom: "fc6"
  top: "fc6"
  dropout_param {
    dropout_ratio: 0.5
  }
}
layer {
  name: "fc7"
  type: "InnerProduct"
  bottom: "fc6"
  top: "fc7"
  param {
    lr_mult: 1
  }
  param {
    lr_mult: 2
  }
  inner_product_param {
    num_output: 4096
  }
}
layer {
  name: "relu7"
  type: "ReLU"
  bottom: "fc7"
  top: "fc7"
}
layer {
  name: "drop7"
  type: "Dropout"
  bottom: "fc7"
  top: "fc7"
  dropout_param {
    dropout_ratio: 0.5
  }
}
layer {
  name: "cls_score"
  type: "InnerProduct"
  bottom: "fc7"
  top: "cls_score"
  param {
    lr_mult: 1
  }
  param {
    lr_mult: 2
  }
  inner_product_param {
    num_output: 21
    weight_filler {
      type: "gaussian"
      std: 0.01
    }
    bias_filler {
      type: "constant"
      value: 0
    }
  }
}
layer {
  name: "bbox_pred"
  type: "InnerProduct"
  bottom: "fc7"
  top: "bbox_pred"
  param {
    lr_mult: 1
  }
  param {
    lr_mult: 2
  }
  inner_product_param {
    num_output: 84
    weight_filler {
      type: "gaussian"
      std: 0.001
    }
    bias_filler {
      type: "constant"
      value: 0
    }
  }
}
layer {
  name: "loss_cls"
  type: "SoftmaxWithLoss"
  bottom: "cls_score"
  bottom: "labels"
  top: "loss_cls"
  loss_weight: 1
  propagate_down: true
  propagate_down: false
}
layer {
  name: "loss_bbox"
  type: "SmoothL1Loss"
  bottom: "bbox_pred"
  bottom: "bbox_targets"
  bottom: "bbox_inside_weights"
  bottom: "bbox_outside_weights"
  top: "loss_bbox"
  loss_weight: 1
}
I0529 13:42:00.525827 17405 layer_factory.hpp:77] Creating layer input-data
I0529 13:42:00.528245 17405 net.cpp:106] Creating Layer input-data
I0529 13:42:00.528281 17405 net.cpp:411] input-data -> data
I0529 13:42:00.528308 17405 net.cpp:411] input-data -> im_info
I0529 13:42:00.528316 17405 net.cpp:411] input-data -> gt_boxes
RoiDataLayer: name_to_top: {'gt_boxes': 2, 'data': 0, 'im_info': 1}
I0529 13:42:00.544644 17405 net.cpp:150] Setting up input-data
I0529 13:42:00.544670 17405 net.cpp:157] Top shape: 1 3 600 1000 (1800000)
I0529 13:42:00.544678 17405 net.cpp:157] Top shape: 1 3 (3)
I0529 13:42:00.544682 17405 net.cpp:157] Top shape: 1 4 (4)
I0529 13:42:00.544687 17405 net.cpp:165] Memory required for data: 7200028
I0529 13:42:00.544692 17405 layer_factory.hpp:77] Creating layer data_input-data_0_split
I0529 13:42:00.544706 17405 net.cpp:106] Creating Layer data_input-data_0_split
I0529 13:42:00.544713 17405 net.cpp:454] data_input-data_0_split <- data
I0529 13:42:00.544719 17405 net.cpp:411] data_input-data_0_split -> data_input-data_0_split_0
I0529 13:42:00.544728 17405 net.cpp:411] data_input-data_0_split -> data_input-data_0_split_1
I0529 13:42:00.544766 17405 net.cpp:150] Setting up data_input-data_0_split
I0529 13:42:00.544773 17405 net.cpp:157] Top shape: 1 3 600 1000 (1800000)
I0529 13:42:00.544778 17405 net.cpp:157] Top shape: 1 3 600 1000 (1800000)
I0529 13:42:00.544781 17405 net.cpp:165] Memory required for data: 21600028
I0529 13:42:00.544785 17405 layer_factory.hpp:77] Creating layer im_info_input-data_1_split
I0529 13:42:00.544791 17405 net.cpp:106] Creating Layer im_info_input-data_1_split
I0529 13:42:00.544795 17405 net.cpp:454] im_info_input-data_1_split <- im_info
I0529 13:42:00.544800 17405 net.cpp:411] im_info_input-data_1_split -> im_info_input-data_1_split_0
I0529 13:42:00.544806 17405 net.cpp:411] im_info_input-data_1_split -> im_info_input-data_1_split_1
I0529 13:42:00.544833 17405 net.cpp:150] Setting up im_info_input-data_1_split
I0529 13:42:00.544855 17405 net.cpp:157] Top shape: 1 3 (3)
I0529 13:42:00.544859 17405 net.cpp:157] Top shape: 1 3 (3)
I0529 13:42:00.544863 17405 net.cpp:165] Memory required for data: 21600052
I0529 13:42:00.544867 17405 layer_factory.hpp:77] Creating layer gt_boxes_input-data_2_split
I0529 13:42:00.544872 17405 net.cpp:106] Creating Layer gt_boxes_input-data_2_split
I0529 13:42:00.544876 17405 net.cpp:454] gt_boxes_input-data_2_split <- gt_boxes
I0529 13:42:00.544881 17405 net.cpp:411] gt_boxes_input-data_2_split -> gt_boxes_input-data_2_split_0
I0529 13:42:00.544888 17405 net.cpp:411] gt_boxes_input-data_2_split -> gt_boxes_input-data_2_split_1
I0529 13:42:00.544919 17405 net.cpp:150] Setting up gt_boxes_input-data_2_split
I0529 13:42:00.544924 17405 net.cpp:157] Top shape: 1 4 (4)
I0529 13:42:00.544929 17405 net.cpp:157] Top shape: 1 4 (4)
I0529 13:42:00.544932 17405 net.cpp:165] Memory required for data: 21600084
I0529 13:42:00.544936 17405 layer_factory.hpp:77] Creating layer conv1_1
I0529 13:42:00.544947 17405 net.cpp:106] Creating Layer conv1_1
I0529 13:42:00.544951 17405 net.cpp:454] conv1_1 <- data_input-data_0_split_0
I0529 13:42:00.544957 17405 net.cpp:411] conv1_1 -> conv1_1
I0529 13:42:00.549104 17405 net.cpp:150] Setting up conv1_1
I0529 13:42:00.549167 17405 net.cpp:157] Top shape: 1 64 600 1000 (38400000)
I0529 13:42:00.549175 17405 net.cpp:165] Memory required for data: 175200084
I0529 13:42:00.549216 17405 layer_factory.hpp:77] Creating layer relu1_1
I0529 13:42:00.549235 17405 net.cpp:106] Creating Layer relu1_1
I0529 13:42:00.549247 17405 net.cpp:454] relu1_1 <- conv1_1
I0529 13:42:00.549258 17405 net.cpp:397] relu1_1 -> conv1_1 (in-place)
I0529 13:42:00.549293 17405 net.cpp:150] Setting up relu1_1
I0529 13:42:00.549304 17405 net.cpp:157] Top shape: 1 64 600 1000 (38400000)
I0529 13:42:00.549311 17405 net.cpp:165] Memory required for data: 328800084
I0529 13:42:00.549319 17405 layer_factory.hpp:77] Creating layer conv1_2
I0529 13:42:00.549371 17405 net.cpp:106] Creating Layer conv1_2
I0529 13:42:00.549379 17405 net.cpp:454] conv1_2 <- conv1_1
I0529 13:42:00.549391 17405 net.cpp:411] conv1_2 -> conv1_2
I0529 13:42:00.554352 17405 net.cpp:150] Setting up conv1_2
I0529 13:42:00.554379 17405 net.cpp:157] Top shape: 1 64 600 1000 (38400000)
I0529 13:42:00.554388 17405 net.cpp:165] Memory required for data: 482400084
I0529 13:42:00.554407 17405 layer_factory.hpp:77] Creating layer relu1_2
I0529 13:42:00.554424 17405 net.cpp:106] Creating Layer relu1_2
I0529 13:42:00.554433 17405 net.cpp:454] relu1_2 <- conv1_2
I0529 13:42:00.554445 17405 net.cpp:397] relu1_2 -> conv1_2 (in-place)
I0529 13:42:00.554457 17405 net.cpp:150] Setting up relu1_2
I0529 13:42:00.554467 17405 net.cpp:157] Top shape: 1 64 600 1000 (38400000)
I0529 13:42:00.554473 17405 net.cpp:165] Memory required for data: 636000084
I0529 13:42:00.554481 17405 layer_factory.hpp:77] Creating layer pool1
I0529 13:42:00.554494 17405 net.cpp:106] Creating Layer pool1
I0529 13:42:00.554502 17405 net.cpp:454] pool1 <- conv1_2
I0529 13:42:00.554512 17405 net.cpp:411] pool1 -> pool1
I0529 13:42:00.554594 17405 net.cpp:150] Setting up pool1
I0529 13:42:00.554607 17405 net.cpp:157] Top shape: 1 64 300 500 (9600000)
I0529 13:42:00.554615 17405 net.cpp:165] Memory required for data: 674400084
I0529 13:42:00.554621 17405 layer_factory.hpp:77] Creating layer conv2_1
I0529 13:42:00.554637 17405 net.cpp:106] Creating Layer conv2_1
I0529 13:42:00.554646 17405 net.cpp:454] conv2_1 <- pool1
I0529 13:42:00.554658 17405 net.cpp:411] conv2_1 -> conv2_1
I0529 13:42:00.556862 17405 net.cpp:150] Setting up conv2_1
I0529 13:42:00.556888 17405 net.cpp:157] Top shape: 1 128 300 500 (19200000)
I0529 13:42:00.556901 17405 net.cpp:165] Memory required for data: 751200084
I0529 13:42:00.556918 17405 layer_factory.hpp:77] Creating layer relu2_1
I0529 13:42:00.556931 17405 net.cpp:106] Creating Layer relu2_1
I0529 13:42:00.556938 17405 net.cpp:454] relu2_1 <- conv2_1
I0529 13:42:00.556959 17405 net.cpp:397] relu2_1 -> conv2_1 (in-place)
I0529 13:42:00.556970 17405 net.cpp:150] Setting up relu2_1
I0529 13:42:00.556978 17405 net.cpp:157] Top shape: 1 128 300 500 (19200000)
I0529 13:42:00.556984 17405 net.cpp:165] Memory required for data: 828000084
I0529 13:42:00.557001 17405 layer_factory.hpp:77] Creating layer conv2_2
I0529 13:42:00.557026 17405 net.cpp:106] Creating Layer conv2_2
I0529 13:42:00.557032 17405 net.cpp:454] conv2_2 <- conv2_1
I0529 13:42:00.557044 17405 net.cpp:411] conv2_2 -> conv2_2
I0529 13:42:00.557909 17405 net.cpp:150] Setting up conv2_2
I0529 13:42:00.557924 17405 net.cpp:157] Top shape: 1 128 300 500 (19200000)
I0529 13:42:00.557940 17405 net.cpp:165] Memory required for data: 904800084
I0529 13:42:00.557951 17405 layer_factory.hpp:77] Creating layer relu2_2
I0529 13:42:00.557960 17405 net.cpp:106] Creating Layer relu2_2
I0529 13:42:00.557967 17405 net.cpp:454] relu2_2 <- conv2_2
I0529 13:42:00.557987 17405 net.cpp:397] relu2_2 -> conv2_2 (in-place)
I0529 13:42:00.557997 17405 net.cpp:150] Setting up relu2_2
I0529 13:42:00.558006 17405 net.cpp:157] Top shape: 1 128 300 500 (19200000)
I0529 13:42:00.558023 17405 net.cpp:165] Memory required for data: 981600084
I0529 13:42:00.558029 17405 layer_factory.hpp:77] Creating layer pool2
I0529 13:42:00.558048 17405 net.cpp:106] Creating Layer pool2
I0529 13:42:00.558055 17405 net.cpp:454] pool2 <- conv2_2
I0529 13:42:00.558064 17405 net.cpp:411] pool2 -> pool2
I0529 13:42:00.558125 17405 net.cpp:150] Setting up pool2
I0529 13:42:00.558137 17405 net.cpp:157] Top shape: 1 128 150 250 (4800000)
I0529 13:42:00.558143 17405 net.cpp:165] Memory required for data: 1000800084
I0529 13:42:00.558149 17405 layer_factory.hpp:77] Creating layer conv3_1
I0529 13:42:00.558162 17405 net.cpp:106] Creating Layer conv3_1
I0529 13:42:00.558171 17405 net.cpp:454] conv3_1 <- pool2
I0529 13:42:00.558182 17405 net.cpp:411] conv3_1 -> conv3_1
I0529 13:42:00.560468 17405 net.cpp:150] Setting up conv3_1
I0529 13:42:00.560494 17405 net.cpp:157] Top shape: 1 256 150 250 (9600000)
I0529 13:42:00.560505 17405 net.cpp:165] Memory required for data: 1039200084
I0529 13:42:00.560523 17405 layer_factory.hpp:77] Creating layer relu3_1
I0529 13:42:00.560534 17405 net.cpp:106] Creating Layer relu3_1
I0529 13:42:00.560540 17405 net.cpp:454] relu3_1 <- conv3_1
I0529 13:42:00.560550 17405 net.cpp:397] relu3_1 -> conv3_1 (in-place)
I0529 13:42:00.560561 17405 net.cpp:150] Setting up relu3_1
I0529 13:42:00.560570 17405 net.cpp:157] Top shape: 1 256 150 250 (9600000)
I0529 13:42:00.560575 17405 net.cpp:165] Memory required for data: 1077600084
I0529 13:42:00.560582 17405 layer_factory.hpp:77] Creating layer conv3_2
I0529 13:42:00.560598 17405 net.cpp:106] Creating Layer conv3_2
I0529 13:42:00.560607 17405 net.cpp:454] conv3_2 <- conv3_1
I0529 13:42:00.560617 17405 net.cpp:411] conv3_2 -> conv3_2
I0529 13:42:00.563429 17405 net.cpp:150] Setting up conv3_2
I0529 13:42:00.563465 17405 net.cpp:157] Top shape: 1 256 150 250 (9600000)
I0529 13:42:00.563472 17405 net.cpp:165] Memory required for data: 1116000084
I0529 13:42:00.563486 17405 layer_factory.hpp:77] Creating layer relu3_2
I0529 13:42:00.563498 17405 net.cpp:106] Creating Layer relu3_2
I0529 13:42:00.563505 17405 net.cpp:454] relu3_2 <- conv3_2
I0529 13:42:00.563515 17405 net.cpp:397] relu3_2 -> conv3_2 (in-place)
I0529 13:42:00.563525 17405 net.cpp:150] Setting up relu3_2
I0529 13:42:00.563539 17405 net.cpp:157] Top shape: 1 256 150 250 (9600000)
I0529 13:42:00.563544 17405 net.cpp:165] Memory required for data: 1154400084
I0529 13:42:00.563561 17405 layer_factory.hpp:77] Creating layer conv3_3
I0529 13:42:00.563575 17405 net.cpp:106] Creating Layer conv3_3
I0529 13:42:00.563580 17405 net.cpp:454] conv3_3 <- conv3_2
I0529 13:42:00.563591 17405 net.cpp:411] conv3_3 -> conv3_3
I0529 13:42:00.566238 17405 net.cpp:150] Setting up conv3_3
I0529 13:42:00.566262 17405 net.cpp:157] Top shape: 1 256 150 250 (9600000)
I0529 13:42:00.566267 17405 net.cpp:165] Memory required for data: 1192800084
I0529 13:42:00.566279 17405 layer_factory.hpp:77] Creating layer relu3_3
I0529 13:42:00.566289 17405 net.cpp:106] Creating Layer relu3_3
I0529 13:42:00.566296 17405 net.cpp:454] relu3_3 <- conv3_3
I0529 13:42:00.566306 17405 net.cpp:397] relu3_3 -> conv3_3 (in-place)
I0529 13:42:00.566325 17405 net.cpp:150] Setting up relu3_3
I0529 13:42:00.566332 17405 net.cpp:157] Top shape: 1 256 150 250 (9600000)
I0529 13:42:00.566339 17405 net.cpp:165] Memory required for data: 1231200084
I0529 13:42:00.566344 17405 layer_factory.hpp:77] Creating layer pool3
I0529 13:42:00.566354 17405 net.cpp:106] Creating Layer pool3
I0529 13:42:00.566359 17405 net.cpp:454] pool3 <- conv3_3
I0529 13:42:00.566370 17405 net.cpp:411] pool3 -> pool3
I0529 13:42:00.566431 17405 net.cpp:150] Setting up pool3
I0529 13:42:00.566442 17405 net.cpp:157] Top shape: 1 256 75 125 (2400000)
I0529 13:42:00.566448 17405 net.cpp:165] Memory required for data: 1240800084
I0529 13:42:00.566453 17405 layer_factory.hpp:77] Creating layer conv4_1
I0529 13:42:00.566468 17405 net.cpp:106] Creating Layer conv4_1
I0529 13:42:00.566475 17405 net.cpp:454] conv4_1 <- pool3
I0529 13:42:00.566486 17405 net.cpp:411] conv4_1 -> conv4_1
I0529 13:42:00.573876 17405 net.cpp:150] Setting up conv4_1
I0529 13:42:00.573931 17405 net.cpp:157] Top shape: 1 512 75 125 (4800000)
I0529 13:42:00.573940 17405 net.cpp:165] Memory required for data: 1260000084
I0529 13:42:00.573956 17405 layer_factory.hpp:77] Creating layer relu4_1
I0529 13:42:00.573972 17405 net.cpp:106] Creating Layer relu4_1
I0529 13:42:00.573992 17405 net.cpp:454] relu4_1 <- conv4_1
I0529 13:42:00.574003 17405 net.cpp:397] relu4_1 -> conv4_1 (in-place)
I0529 13:42:00.574018 17405 net.cpp:150] Setting up relu4_1
I0529 13:42:00.574028 17405 net.cpp:157] Top shape: 1 512 75 125 (4800000)
I0529 13:42:00.574034 17405 net.cpp:165] Memory required for data: 1279200084
I0529 13:42:00.574040 17405 layer_factory.hpp:77] Creating layer conv4_2
I0529 13:42:00.574056 17405 net.cpp:106] Creating Layer conv4_2
I0529 13:42:00.574064 17405 net.cpp:454] conv4_2 <- conv4_1
I0529 13:42:00.574075 17405 net.cpp:411] conv4_2 -> conv4_2
I0529 13:42:00.582974 17405 net.cpp:150] Setting up conv4_2
I0529 13:42:00.583022 17405 net.cpp:157] Top shape: 1 512 75 125 (4800000)
I0529 13:42:00.583029 17405 net.cpp:165] Memory required for data: 1298400084
I0529 13:42:00.583055 17405 layer_factory.hpp:77] Creating layer relu4_2
I0529 13:42:00.583071 17405 net.cpp:106] Creating Layer relu4_2
I0529 13:42:00.583083 17405 net.cpp:454] relu4_2 <- conv4_2
I0529 13:42:00.583094 17405 net.cpp:397] relu4_2 -> conv4_2 (in-place)
I0529 13:42:00.583111 17405 net.cpp:150] Setting up relu4_2
I0529 13:42:00.583119 17405 net.cpp:157] Top shape: 1 512 75 125 (4800000)
I0529 13:42:00.583125 17405 net.cpp:165] Memory required for data: 1317600084
I0529 13:42:00.583130 17405 layer_factory.hpp:77] Creating layer conv4_3
I0529 13:42:00.583144 17405 net.cpp:106] Creating Layer conv4_3
I0529 13:42:00.583151 17405 net.cpp:454] conv4_3 <- conv4_2
I0529 13:42:00.583163 17405 net.cpp:411] conv4_3 -> conv4_3
I0529 13:42:00.591540 17405 net.cpp:150] Setting up conv4_3
I0529 13:42:00.591593 17405 net.cpp:157] Top shape: 1 512 75 125 (4800000)
I0529 13:42:00.591599 17405 net.cpp:165] Memory required for data: 1336800084
I0529 13:42:00.591615 17405 layer_factory.hpp:77] Creating layer relu4_3
I0529 13:42:00.591631 17405 net.cpp:106] Creating Layer relu4_3
I0529 13:42:00.591651 17405 net.cpp:454] relu4_3 <- conv4_3
I0529 13:42:00.591661 17405 net.cpp:397] relu4_3 -> conv4_3 (in-place)
I0529 13:42:00.591675 17405 net.cpp:150] Setting up relu4_3
I0529 13:42:00.591682 17405 net.cpp:157] Top shape: 1 512 75 125 (4800000)
I0529 13:42:00.591686 17405 net.cpp:165] Memory required for data: 1356000084
I0529 13:42:00.591692 17405 layer_factory.hpp:77] Creating layer pool4
I0529 13:42:00.591703 17405 net.cpp:106] Creating Layer pool4
I0529 13:42:00.591708 17405 net.cpp:454] pool4 <- conv4_3
I0529 13:42:00.591717 17405 net.cpp:411] pool4 -> pool4
I0529 13:42:00.591774 17405 net.cpp:150] Setting up pool4
I0529 13:42:00.591784 17405 net.cpp:157] Top shape: 1 512 38 63 (1225728)
I0529 13:42:00.591789 17405 net.cpp:165] Memory required for data: 1360902996
I0529 13:42:00.591794 17405 layer_factory.hpp:77] Creating layer conv5_1
I0529 13:42:00.591809 17405 net.cpp:106] Creating Layer conv5_1
I0529 13:42:00.591815 17405 net.cpp:454] conv5_1 <- pool4
I0529 13:42:00.591825 17405 net.cpp:411] conv5_1 -> conv5_1
I0529 13:42:00.599623 17405 net.cpp:150] Setting up conv5_1
I0529 13:42:00.599659 17405 net.cpp:157] Top shape: 1 512 38 63 (1225728)
I0529 13:42:00.599666 17405 net.cpp:165] Memory required for data: 1365805908
I0529 13:42:00.599680 17405 layer_factory.hpp:77] Creating layer relu5_1
I0529 13:42:00.599694 17405 net.cpp:106] Creating Layer relu5_1
I0529 13:42:00.599704 17405 net.cpp:454] relu5_1 <- conv5_1
I0529 13:42:00.599714 17405 net.cpp:397] relu5_1 -> conv5_1 (in-place)
I0529 13:42:00.599726 17405 net.cpp:150] Setting up relu5_1
I0529 13:42:00.599733 17405 net.cpp:157] Top shape: 1 512 38 63 (1225728)
I0529 13:42:00.599738 17405 net.cpp:165] Memory required for data: 1370708820
I0529 13:42:00.599743 17405 layer_factory.hpp:77] Creating layer conv5_2
I0529 13:42:00.599757 17405 net.cpp:106] Creating Layer conv5_2
I0529 13:42:00.599763 17405 net.cpp:454] conv5_2 <- conv5_1
I0529 13:42:00.599772 17405 net.cpp:411] conv5_2 -> conv5_2
I0529 13:42:00.609812 17405 net.cpp:150] Setting up conv5_2
I0529 13:42:00.609874 17405 net.cpp:157] Top shape: 1 512 38 63 (1225728)
I0529 13:42:00.609879 17405 net.cpp:165] Memory required for data: 1375611732
I0529 13:42:00.609894 17405 layer_factory.hpp:77] Creating layer relu5_2
I0529 13:42:00.609921 17405 net.cpp:106] Creating Layer relu5_2
I0529 13:42:00.609930 17405 net.cpp:454] relu5_2 <- conv5_2
I0529 13:42:00.609941 17405 net.cpp:397] relu5_2 -> conv5_2 (in-place)
I0529 13:42:00.609966 17405 net.cpp:150] Setting up relu5_2
I0529 13:42:00.609973 17405 net.cpp:157] Top shape: 1 512 38 63 (1225728)
I0529 13:42:00.609978 17405 net.cpp:165] Memory required for data: 1380514644
I0529 13:42:00.609983 17405 layer_factory.hpp:77] Creating layer conv5_3
I0529 13:42:00.610005 17405 net.cpp:106] Creating Layer conv5_3
I0529 13:42:00.610011 17405 net.cpp:454] conv5_3 <- conv5_2
I0529 13:42:00.610021 17405 net.cpp:411] conv5_3 -> conv5_3
I0529 13:42:00.618232 17405 net.cpp:150] Setting up conv5_3
I0529 13:42:00.618275 17405 net.cpp:157] Top shape: 1 512 38 63 (1225728)
I0529 13:42:00.618281 17405 net.cpp:165] Memory required for data: 1385417556
I0529 13:42:00.618294 17405 layer_factory.hpp:77] Creating layer relu5_3
I0529 13:42:00.618307 17405 net.cpp:106] Creating Layer relu5_3
I0529 13:42:00.618325 17405 net.cpp:454] relu5_3 <- conv5_3
I0529 13:42:00.618335 17405 net.cpp:397] relu5_3 -> conv5_3 (in-place)
I0529 13:42:00.618345 17405 net.cpp:150] Setting up relu5_3
I0529 13:42:00.618362 17405 net.cpp:157] Top shape: 1 512 38 63 (1225728)
I0529 13:42:00.618367 17405 net.cpp:165] Memory required for data: 1390320468
I0529 13:42:00.618372 17405 layer_factory.hpp:77] Creating layer conv5_3_relu5_3_0_split
I0529 13:42:00.618381 17405 net.cpp:106] Creating Layer conv5_3_relu5_3_0_split
I0529 13:42:00.618386 17405 net.cpp:454] conv5_3_relu5_3_0_split <- conv5_3
I0529 13:42:00.618392 17405 net.cpp:411] conv5_3_relu5_3_0_split -> conv5_3_relu5_3_0_split_0
I0529 13:42:00.618402 17405 net.cpp:411] conv5_3_relu5_3_0_split -> conv5_3_relu5_3_0_split_1
I0529 13:42:00.618450 17405 net.cpp:150] Setting up conv5_3_relu5_3_0_split
I0529 13:42:00.618459 17405 net.cpp:157] Top shape: 1 512 38 63 (1225728)
I0529 13:42:00.618465 17405 net.cpp:157] Top shape: 1 512 38 63 (1225728)
I0529 13:42:00.618469 17405 net.cpp:165] Memory required for data: 1400126292
I0529 13:42:00.618474 17405 layer_factory.hpp:77] Creating layer rpn_conv/3x3
I0529 13:42:00.618490 17405 net.cpp:106] Creating Layer rpn_conv/3x3
I0529 13:42:00.618497 17405 net.cpp:454] rpn_conv/3x3 <- conv5_3_relu5_3_0_split_0
I0529 13:42:00.618507 17405 net.cpp:411] rpn_conv/3x3 -> rpn/output
I0529 13:42:00.713572 17405 net.cpp:150] Setting up rpn_conv/3x3
I0529 13:42:00.713629 17405 net.cpp:157] Top shape: 1 512 38 63 (1225728)
I0529 13:42:00.713635 17405 net.cpp:165] Memory required for data: 1405029204
I0529 13:42:00.713649 17405 layer_factory.hpp:77] Creating layer rpn_relu/3x3
I0529 13:42:00.713665 17405 net.cpp:106] Creating Layer rpn_relu/3x3
I0529 13:42:00.713683 17405 net.cpp:454] rpn_relu/3x3 <- rpn/output
I0529 13:42:00.713692 17405 net.cpp:397] rpn_relu/3x3 -> rpn/output (in-place)
I0529 13:42:00.713704 17405 net.cpp:150] Setting up rpn_relu/3x3
I0529 13:42:00.713709 17405 net.cpp:157] Top shape: 1 512 38 63 (1225728)
I0529 13:42:00.713713 17405 net.cpp:165] Memory required for data: 1409932116
I0529 13:42:00.713726 17405 layer_factory.hpp:77] Creating layer rpn/output_rpn_relu/3x3_0_split
I0529 13:42:00.713735 17405 net.cpp:106] Creating Layer rpn/output_rpn_relu/3x3_0_split
I0529 13:42:00.713739 17405 net.cpp:454] rpn/output_rpn_relu/3x3_0_split <- rpn/output
I0529 13:42:00.713752 17405 net.cpp:411] rpn/output_rpn_relu/3x3_0_split -> rpn/output_rpn_relu/3x3_0_split_0
I0529 13:42:00.713760 17405 net.cpp:411] rpn/output_rpn_relu/3x3_0_split -> rpn/output_rpn_relu/3x3_0_split_1
I0529 13:42:00.713805 17405 net.cpp:150] Setting up rpn/output_rpn_relu/3x3_0_split
I0529 13:42:00.713814 17405 net.cpp:157] Top shape: 1 512 38 63 (1225728)
I0529 13:42:00.713819 17405 net.cpp:157] Top shape: 1 512 38 63 (1225728)
I0529 13:42:00.713824 17405 net.cpp:165] Memory required for data: 1419737940
I0529 13:42:00.713827 17405 layer_factory.hpp:77] Creating layer rpn_cls_score
I0529 13:42:00.713841 17405 net.cpp:106] Creating Layer rpn_cls_score
I0529 13:42:00.713847 17405 net.cpp:454] rpn_cls_score <- rpn/output_rpn_relu/3x3_0_split_0
I0529 13:42:00.713855 17405 net.cpp:411] rpn_cls_score -> rpn_cls_score
I0529 13:42:00.714504 17405 net.cpp:150] Setting up rpn_cls_score
I0529 13:42:00.714514 17405 net.cpp:157] Top shape: 1 18 38 63 (43092)
I0529 13:42:00.714519 17405 net.cpp:165] Memory required for data: 1419910308
I0529 13:42:00.714532 17405 layer_factory.hpp:77] Creating layer rpn_cls_score_rpn_cls_score_0_split
I0529 13:42:00.714540 17405 net.cpp:106] Creating Layer rpn_cls_score_rpn_cls_score_0_split
I0529 13:42:00.714545 17405 net.cpp:454] rpn_cls_score_rpn_cls_score_0_split <- rpn_cls_score
I0529 13:42:00.714552 17405 net.cpp:411] rpn_cls_score_rpn_cls_score_0_split -> rpn_cls_score_rpn_cls_score_0_split_0
I0529 13:42:00.714578 17405 net.cpp:411] rpn_cls_score_rpn_cls_score_0_split -> rpn_cls_score_rpn_cls_score_0_split_1
I0529 13:42:00.714643 17405 net.cpp:150] Setting up rpn_cls_score_rpn_cls_score_0_split
I0529 13:42:00.714651 17405 net.cpp:157] Top shape: 1 18 38 63 (43092)
I0529 13:42:00.714656 17405 net.cpp:157] Top shape: 1 18 38 63 (43092)
I0529 13:42:00.714660 17405 net.cpp:165] Memory required for data: 1420255044
I0529 13:42:00.714664 17405 layer_factory.hpp:77] Creating layer rpn_bbox_pred
I0529 13:42:00.714676 17405 net.cpp:106] Creating Layer rpn_bbox_pred
I0529 13:42:00.714681 17405 net.cpp:454] rpn_bbox_pred <- rpn/output_rpn_relu/3x3_0_split_1
I0529 13:42:00.714690 17405 net.cpp:411] rpn_bbox_pred -> rpn_bbox_pred
I0529 13:42:00.715672 17405 net.cpp:150] Setting up rpn_bbox_pred
I0529 13:42:00.715682 17405 net.cpp:157] Top shape: 1 36 38 63 (86184)
I0529 13:42:00.715687 17405 net.cpp:165] Memory required for data: 1420599780
I0529 13:42:00.715703 17405 layer_factory.hpp:77] Creating layer rpn_bbox_pred_rpn_bbox_pred_0_split
I0529 13:42:00.715710 17405 net.cpp:106] Creating Layer rpn_bbox_pred_rpn_bbox_pred_0_split
I0529 13:42:00.715715 17405 net.cpp:454] rpn_bbox_pred_rpn_bbox_pred_0_split <- rpn_bbox_pred
I0529 13:42:00.715723 17405 net.cpp:411] rpn_bbox_pred_rpn_bbox_pred_0_split -> rpn_bbox_pred_rpn_bbox_pred_0_split_0
I0529 13:42:00.715730 17405 net.cpp:411] rpn_bbox_pred_rpn_bbox_pred_0_split -> rpn_bbox_pred_rpn_bbox_pred_0_split_1
I0529 13:42:00.715785 17405 net.cpp:150] Setting up rpn_bbox_pred_rpn_bbox_pred_0_split
I0529 13:42:00.715793 17405 net.cpp:157] Top shape: 1 36 38 63 (86184)
I0529 13:42:00.715798 17405 net.cpp:157] Top shape: 1 36 38 63 (86184)
I0529 13:42:00.715802 17405 net.cpp:165] Memory required for data: 1421289252
I0529 13:42:00.715807 17405 layer_factory.hpp:77] Creating layer rpn_cls_score_reshape
I0529 13:42:00.715816 17405 net.cpp:106] Creating Layer rpn_cls_score_reshape
I0529 13:42:00.715821 17405 net.cpp:454] rpn_cls_score_reshape <- rpn_cls_score_rpn_cls_score_0_split_0
I0529 13:42:00.715828 17405 net.cpp:411] rpn_cls_score_reshape -> rpn_cls_score_reshape
I0529 13:42:00.715857 17405 net.cpp:150] Setting up rpn_cls_score_reshape
I0529 13:42:00.715867 17405 net.cpp:157] Top shape: 1 2 342 63 (43092)
I0529 13:42:00.715870 17405 net.cpp:165] Memory required for data: 1421461620
I0529 13:42:00.715874 17405 layer_factory.hpp:77] Creating layer rpn_cls_score_reshape_rpn_cls_score_reshape_0_split
I0529 13:42:00.715883 17405 net.cpp:106] Creating Layer rpn_cls_score_reshape_rpn_cls_score_reshape_0_split
I0529 13:42:00.715888 17405 net.cpp:454] rpn_cls_score_reshape_rpn_cls_score_reshape_0_split <- rpn_cls_score_reshape
I0529 13:42:00.715894 17405 net.cpp:411] rpn_cls_score_reshape_rpn_cls_score_reshape_0_split -> rpn_cls_score_reshape_rpn_cls_score_reshape_0_split_0
I0529 13:42:00.715901 17405 net.cpp:411] rpn_cls_score_reshape_rpn_cls_score_reshape_0_split -> rpn_cls_score_reshape_rpn_cls_score_reshape_0_split_1
I0529 13:42:00.715939 17405 net.cpp:150] Setting up rpn_cls_score_reshape_rpn_cls_score_reshape_0_split
I0529 13:42:00.715948 17405 net.cpp:157] Top shape: 1 2 342 63 (43092)
I0529 13:42:00.715953 17405 net.cpp:157] Top shape: 1 2 342 63 (43092)
I0529 13:42:00.715965 17405 net.cpp:165] Memory required for data: 1421806356
I0529 13:42:00.715970 17405 layer_factory.hpp:77] Creating layer rpn-data
I0529 13:42:00.716703 17405 net.cpp:106] Creating Layer rpn-data
I0529 13:42:00.716719 17405 net.cpp:454] rpn-data <- rpn_cls_score_rpn_cls_score_0_split_1
I0529 13:42:00.716727 17405 net.cpp:454] rpn-data <- gt_boxes_input-data_2_split_0
I0529 13:42:00.716733 17405 net.cpp:454] rpn-data <- im_info_input-data_1_split_0
I0529 13:42:00.716739 17405 net.cpp:454] rpn-data <- data_input-data_0_split_1
I0529 13:42:00.716747 17405 net.cpp:411] rpn-data -> rpn_labels
I0529 13:42:00.716756 17405 net.cpp:411] rpn-data -> rpn_bbox_targets
I0529 13:42:00.716773 17405 net.cpp:411] rpn-data -> rpn_bbox_inside_weights
I0529 13:42:00.716783 17405 net.cpp:411] rpn-data -> rpn_bbox_outside_weights
I0529 13:42:00.717787 17405 net.cpp:150] Setting up rpn-data
I0529 13:42:00.717805 17405 net.cpp:157] Top shape: 1 1 342 63 (21546)
I0529 13:42:00.717811 17405 net.cpp:157] Top shape: 1 36 38 63 (86184)
I0529 13:42:00.717816 17405 net.cpp:157] Top shape: 1 36 38 63 (86184)
I0529 13:42:00.717821 17405 net.cpp:157] Top shape: 1 36 38 63 (86184)
I0529 13:42:00.717825 17405 net.cpp:165] Memory required for data: 1422926748
I0529 13:42:00.717830 17405 layer_factory.hpp:77] Creating layer rpn_loss_cls
I0529 13:42:00.717840 17405 net.cpp:106] Creating Layer rpn_loss_cls
I0529 13:42:00.717845 17405 net.cpp:454] rpn_loss_cls <- rpn_cls_score_reshape_rpn_cls_score_reshape_0_split_0
I0529 13:42:00.717852 17405 net.cpp:454] rpn_loss_cls <- rpn_labels
…
I0529 13:42:00.719048 17405 net.cpp:157] Top shape: (1)
I0529 13:42:00.719051 17405 net.cpp:160]     with loss weight 1
I0529 13:42:00.719058 17405 net.cpp:165] Memory required for data: 1422926756
I0529 13:42:00.719063 17405 layer_factory.hpp:77] Creating layer rpn_cls_prob
I0529 13:42:00.719082 17405 net.cpp:106] Creating Layer rpn_cls_prob
I0529 13:42:00.719087 17405 net.cpp:454] rpn_cls_prob <- rpn_cls_score_reshape_rpn_cls_score_reshape_0_split_1
I0529 13:42:00.719094 17405 net.cpp:411] rpn_cls_prob -> rpn_cls_prob
I0529 13:42:00.719168 17405 net.cpp:150] Setting up rpn_cls_prob
I0529 13:42:00.719177 17405 net.cpp:157] Top shape: 1 2 342 63 (43092)
I0529 13:42:00.719182 17405 net.cpp:165] Memory required for data: 1423099124
I0529 13:42:00.719187 17405 layer_factory.hpp:77] Creating layer rpn_cls_prob_reshape
I0529 13:42:00.719195 17405 net.cpp:106] Creating Layer rpn_cls_prob_reshape
I0529 13:42:00.719200 17405 net.cpp:454] rpn_cls_prob_reshape <- rpn_cls_prob
I0529 13:42:00.719208 17405 net.cpp:411] rpn_cls_prob_reshape -> rpn_cls_prob_reshape
I0529 13:42:00.719235 17405 net.cpp:150] Setting up rpn_cls_prob_reshape
I0529 13:42:00.719244 17405 net.cpp:157] Top shape: 1 18 38 63 (43092)
I0529 13:42:00.719247 17405 net.cpp:165] Memory required for data: 1423271492
I0529 13:42:00.719252 17405 layer_factory.hpp:77] Creating layer proposal
I0529 13:42:00.720199 17405 net.cpp:106] Creating Layer proposal
I0529 13:42:00.720216 17405 net.cpp:454] proposal <- rpn_cls_prob_reshape
I0529 13:42:00.720232 17405 net.cpp:454] proposal <- rpn_bbox_pred_rpn_bbox_pred_0_split_1
I0529 13:42:00.720238 17405 net.cpp:454] proposal <- im_info_input-data_1_split_1
I0529 13:42:00.720245 17405 net.cpp:411] proposal -> rpn_rois
I0529 13:42:00.721200 17405 net.cpp:150] Setting up proposal
I0529 13:42:00.721218 17405 net.cpp:157] Top shape: 1 5 (5)
I0529 13:42:00.721223 17405 net.cpp:165] Memory required for data: 1423271512
I0529 13:42:00.721230 17405 layer_factory.hpp:77] Creating layer roi-data
I0529 13:42:00.721447 17405 net.cpp:106] Creating Layer roi-data
I0529 13:42:00.721460 17405 net.cpp:454] roi-data <- rpn_rois
I0529 13:42:00.721467 17405 net.cpp:454] roi-data <- gt_boxes_input-data_2_split_1
I0529 13:42:00.721477 17405 net.cpp:411] roi-data -> rois
I0529 13:42:00.721485 17405 net.cpp:411] roi-data -> labels
I0529 13:42:00.721496 17405 net.cpp:411] roi-data -> bbox_targets
I0529 13:42:00.721503 17405 net.cpp:411] roi-data -> bbox_inside_weights
I0529 13:42:00.721511 17405 net.cpp:411] roi-data -> bbox_outside_weights
I0529 13:42:00.721990 17405 net.cpp:150] Setting up roi-data
I0529 13:42:00.722007 17405 net.cpp:157] Top shape: 1 5 (5)
I0529 13:42:00.722012 17405 net.cpp:157] Top shape: 1 1 (1)
I0529 13:42:00.722018 17405 net.cpp:157] Top shape: 1 84 (84)
I0529 13:42:00.722021 17405 net.cpp:157] Top shape: 1 84 (84)
I0529 13:42:00.722026 17405 net.cpp:157] Top shape: 1 84 (84)
I0529 13:42:00.722030 17405 net.cpp:165] Memory required for data: 1423272544
I0529 13:42:00.722035 17405 layer_factory.hpp:77] Creating layer roi_pool5
I0529 13:42:00.722051 17405 net.cpp:106] Creating Layer roi_pool5
I0529 13:42:00.722059 17405 net.cpp:454] roi_pool5 <- conv5_3_relu5_3_0_split_1
I0529 13:42:00.722066 17405 net.cpp:454] roi_pool5 <- rois
I0529 13:42:00.722072 17405 net.cpp:411] roi_pool5 -> pool5
I0529 13:42:00.722082 17405 roi_pooling_layer.cpp:30] Spatial scale: 0.0625
I0529 13:42:00.722132 17405 net.cpp:150] Setting up roi_pool5
I0529 13:42:00.722141 17405 net.cpp:157] Top shape: 1 512 7 7 (25088)
I0529 13:42:00.722146 17405 net.cpp:165] Memory required for data: 1423372896
I0529 13:42:00.722151 17405 layer_factory.hpp:77] Creating layer fc6
I0529 13:42:00.722162 17405 net.cpp:106] Creating Layer fc6
I0529 13:42:00.722167 17405 net.cpp:454] fc6 <- pool5
I0529 13:42:00.722173 17405 net.cpp:411] fc6 -> fc6
I0529 13:42:01.108203 17405 net.cpp:150] Setting up fc6
I0529 13:42:01.108275 17405 net.cpp:157] Top shape: 1 4096 (4096)
I0529 13:42:01.108283 17405 net.cpp:165] Memory required for data: 1423389280
I0529 13:42:01.108331 17405 layer_factory.hpp:77] Creating layer relu6
I0529 13:42:01.108351 17405 net.cpp:106] Creating Layer relu6
I0529 13:42:01.108359 17405 net.cpp:454] relu6 <- fc6
I0529 13:42:01.108381 17405 net.cpp:397] relu6 -> fc6 (in-place)
I0529 13:42:01.108397 17405 net.cpp:150] Setting up relu6
I0529 13:42:01.108410 17405 net.cpp:157] Top shape: 1 4096 (4096)
I0529 13:42:01.108415 17405 net.cpp:165] Memory required for data: 1423405664
I0529 13:42:01.108422 17405 layer_factory.hpp:77] Creating layer drop6
I0529 13:42:01.108433 17405 net.cpp:106] Creating Layer drop6
I0529 13:42:01.108438 17405 net.cpp:454] drop6 <- fc6
I0529 13:42:01.108445 17405 net.cpp:397] drop6 -> fc6 (in-place)
I0529 13:42:01.108482 17405 net.cpp:150] Setting up drop6
I0529 13:42:01.108492 17405 net.cpp:157] Top shape: 1 4096 (4096)
I0529 13:42:01.108497 17405 net.cpp:165] Memory required for data: 1423422048
I0529 13:42:01.108502 17405 layer_factory.hpp:77] Creating layer fc7
I0529 13:42:01.108513 17405 net.cpp:106] Creating Layer fc7
I0529 13:42:01.108518 17405 net.cpp:454] fc7 <- fc6
I0529 13:42:01.108527 17405 net.cpp:411] fc7 -> fc7
I0529 13:42:01.157586 17405 net.cpp:150] Setting up fc7
I0529 13:42:01.157642 17405 net.cpp:157] Top shape: 1 4096 (4096)
I0529 13:42:01.157649 17405 net.cpp:165] Memory required for data: 1423438432
I0529 13:42:01.157665 17405 layer_factory.hpp:77] Creating layer relu7
I0529 13:42:01.157680 17405 net.cpp:106] Creating Layer relu7
I0529 13:42:01.157690 17405 net.cpp:454] relu7 <- fc7
I0529 13:42:01.157699 17405 net.cpp:397] relu7 -> fc7 (in-place)
I0529 13:42:01.157713 17405 net.cpp:150] Setting up relu7
I0529 13:42:01.157721 17405 net.cpp:157] Top shape: 1 4096 (4096)
I0529 13:42:01.157726 17405 net.cpp:165] Memory required for data: 1423454816
I0529 13:42:01.157729 17405 layer_factory.hpp:77] Creating layer drop7
I0529 13:42:01.157738 17405 net.cpp:106] Creating Layer drop7
I0529 13:42:01.157743 17405 net.cpp:454] drop7 <- fc7
I0529 13:42:01.157750 17405 net.cpp:397] drop7 -> fc7 (in-place)
I0529 13:42:01.157783 17405 net.cpp:150] Setting up drop7
I0529 13:42:01.157791 17405 net.cpp:157] Top shape: 1 4096 (4096)
I0529 13:42:01.157796 17405 net.cpp:165] Memory required for data: 1423471200
I0529 13:42:01.157800 17405 layer_factory.hpp:77] Creating layer fc7_drop7_0_split
I0529 13:42:01.157810 17405 net.cpp:106] Creating Layer fc7_drop7_0_split
I0529 13:42:01.157814 17405 net.cpp:454] fc7_drop7_0_split <- fc7
I0529 13:42:01.157821 17405 net.cpp:411] fc7_drop7_0_split -> fc7_drop7_0_split_0
I0529 13:42:01.157830 17405 net.cpp:411] fc7_drop7_0_split -> fc7_drop7_0_split_1
I0529 13:42:01.157881 17405 net.cpp:150] Setting up fc7_drop7_0_split
I0529 13:42:01.157892 17405 net.cpp:157] Top shape: 1 4096 (4096)
I0529 13:42:01.157897 17405 net.cpp:157] Top shape: 1 4096 (4096)
I0529 13:42:01.157902 17405 net.cpp:165] Memory required for data: 1423503968
I0529 13:42:01.157907 17405 layer_factory.hpp:77] Creating layer cls_score
I0529 13:42:01.157918 17405 net.cpp:106] Creating Layer cls_score
I0529 13:42:01.157923 17405 net.cpp:454] cls_score <- fc7_drop7_0_split_0
I0529 13:42:01.157932 17405 net.cpp:411] cls_score -> cls_score
I0529 13:42:01.161258 17405 net.cpp:150] Setting up cls_score
I0529 13:42:01.161272 17405 net.cpp:157] Top shape: 1 21 (21)
I0529 13:42:01.161275 17405 net.cpp:165] Memory required for data: 1423504052
I0529 13:42:01.161283 17405 layer_factory.hpp:77] Creating layer bbox_pred
I0529 13:42:01.161293 17405 net.cpp:106] Creating Layer bbox_pred
I0529 13:42:01.161298 17405 net.cpp:454] bbox_pred <- fc7_drop7_0_split_1
I0529 13:42:01.161306 17405 net.cpp:411] bbox_pred -> bbox_pred
I0529 13:42:01.175318 17405 net.cpp:150] Setting up bbox_pred
I0529 13:42:01.175338 17405 net.cpp:157] Top shape: 1 84 (84)
I0529 13:42:01.175343 17405 net.cpp:165] Memory required for data: 1423504388
I0529 13:42:01.175351 17405 layer_factory.hpp:77] Creating layer loss_cls
I0529 13:42:01.175361 17405 net.cpp:106] Creating Layer loss_cls
I0529 13:42:01.175367 17405 net.cpp:454] loss_cls <- cls_score
I0529 13:42:01.175374 17405 net.cpp:454] loss_cls <- labels
I0529 13:42:01.175382 17405 net.cpp:411] loss_cls -> loss_cls
…
           'RPN_POST_NMS_TOP_N': 2000,
           'RPN_PRE_NMS_TOP_N': 12000,
           'SCALES': [600],
           'SNAPSHOT_INFIX': '',
           'SNAPSHOT_ITERS': 10000,
           'USE_FLIPPED': True,
           'USE_PREFETCH': False},
 'USE_GPU_NMS': True}
WARNING: Logging before InitGoogleLogging() is written to STDERR
I0529 13:42:43.433249 17660 net.cpp:49] Initializing net from parameters:
name: "VGG_ILSVRC_16_layers"
input: "data"
input: "im_info"
state {
  phase: TEST
}
input_shape {
  dim: 1
  dim: 3
  dim: 224
  dim: 224
}
input_shape {
  dim: 1
  dim: 3
}
layer {
  name: "conv1_1"
  type: "Convolution"
  bottom: "data"
  top: "conv1_1"
  param {
    lr_mult: 0
    decay_mult: 0
  }
  param {
    lr_mult: 0
    decay_mult: 0
  }
  convolution_param {
    num_output: 64
    pad: 1
    kernel_size: 3
  }
}
layer {
  name: "relu1_1"
  type: "ReLU"
  bottom: "conv1_1"
  top: "conv1_1"
}
layer {
  name: "conv1_2"
  type: "Convolution"
  bottom: "conv1_1"
  top: "conv1_2"
  param {
    lr_mult: 0
    decay_mult: 0
  }
  param {
    lr_mult: 0
    decay_mult: 0
  }
  convolution_param {
    num_output: 64
    pad: 1
    kernel_size: 3
  }
}
layer {
  name: "relu1_2"
  type: "ReLU"
  bottom: "conv1_2"
  top: "conv1_2"
}
layer {
  name: "pool1"
  type: "Pooling"
  bottom: "conv1_2"
  top: "pool1"
  pooling_param {
    pool: MAX
    kernel_size: 2
    stride: 2
  }
}
layer {
  name: "conv2_1"
  type: "Convolution"
  bottom: "pool1"
  top: "conv2_1"
  param {
    lr_mult: 0
    decay_mult: 0
  }
  param {
    lr_mult: 0
    decay_mult: 0
  }
  convolution_param {
    num_output: 128
    pad: 1
    kernel_size: 3
  }
}
layer {
  name: "relu2_1"
  type: "ReLU"
  bottom: "conv2_1"
  top: "conv2_1"
}
layer {
  name: "conv2_2"
  type: "Convolution"
  bottom: "conv2_1"
  top: "conv2_2"
  param {
    lr_mult: 0
    decay_mult: 0
  }
  param {
    lr_mult: 0
    decay_mult: 0
  }
  convolution_param {
    num_output: 128
    pad: 1
    kernel_size: 3
  }
}
layer {
  name: "relu2_2"
  type: "ReLU"
  bottom: "conv2_2"
  top: "conv2_2"
}
layer {
  name: "pool2"
  type: "Pooling"
  bottom: "conv2_2"
  top: "pool2"
  pooling_param {
    pool: MAX
    kernel_size: 2
    stride: 2
  }
}
layer {
  name: "conv3_1"
  type: "Convolution"
  bottom: "pool2"
  top: "conv3_1"
  param {
    lr_mult: 1
    decay_mult: 1
  }
  param {
    lr_mult: 2
    decay_mult: 0
  }
  convolution_param {
    num_output: 256
    pad: 1
    kernel_size: 3
  }
}
layer {
  name: "relu3_1"
  type: "ReLU"
  bottom: "conv3_1"
  top: "conv3_1"
}
layer {
  name: "conv3_2"
  type: "Convolution"
  bottom: "conv3_1"
  top: "conv3_2"
  param {
    lr_mult: 1
    decay_mult: 1
  }
  param {
    lr_mult: 2
    decay_mult: 0
  }
  convolution_param {
    num_output: 256
    pad: 1
    kernel_size: 3
  }
}
layer {
  name: "relu3_2"
  type: "ReLU"
  bottom: "conv3_2"
  top: "conv3_2"
}
layer {
  name: "conv3_3"
  type: "Convolution"
  bottom: "conv3_2"
  top: "conv3_3"
  param {
    lr_mult: 1
    decay_mult: 1
  }
  param {
    lr_mult: 2
    decay_mult: 0
  }
  convolution_param {
    num_output: 256
    pad: 1
    kernel_size: 3
  }
}
layer {
  name: "relu3_3"
  type: "ReLU"
  bottom: "conv3_3"
  top: "conv3_3"
}
layer {
  name: "pool3"
  type: "Pooling"
  bottom: "conv3_3"
  top: "pool3"
  pooling_param {
    pool: MAX
    kernel_size: 2
    stride: 2
  }
}
layer {
  name: "conv4_1"
  type: "Convolution"
  bottom: "pool3"
  top: "conv4_1"
  param {
    lr_mult: 1
    decay_mult: 1
  }
  param {
    lr_mult: 2
    decay_mult: 0
  }
  convolution_param {
    num_output: 512
    pad: 1
    kernel_size: 3
  }
}
layer {
  name: "relu4_1"
  type: "ReLU"
  bottom: "conv4_1"
  top: "conv4_1"
}
layer {
  name: "conv4_2"
  type: "Convolution"
  bottom: "conv4_1"
  top: "conv4_2"
  param {
    lr_mult: 1
    decay_mult: 1
  }
  param {
    lr_mult: 2
    decay_mult: 0
  }
  convolution_param {
    num_output: 512
    pad: 1
    kernel_size: 3
  }
}
layer {
  name: "relu4_2"
  type: "ReLU"
  bottom: "conv4_2"
  top: "conv4_2"
}
layer {
  name: "conv4_3"
  type: "Convolution"
  bottom: "conv4_2"
  top: "conv4_3"
  param {
    lr_mult: 1
    decay_mult: 1
  }
  param {
    lr_mult: 2
    decay_mult: 0
  }
  convolution_param {
    num_output: 512
    pad: 1
    kernel_size: 3
  }
}
layer {
  name: "relu4_3"
  type: "ReLU"
  bottom: "conv4_3"
  top: "conv4_3"
}
layer {
  name: "pool4"
  type: "Pooling"
  bottom: "conv4_3"
  top: "pool4"
  pooling_param {
    pool: MAX
    kernel_size: 2
    stride: 2
  }
}
layer {
  name: "conv5_1"
  type: "Convolution"
  bottom: "pool4"
  top: "conv5_1"
  param {
    lr_mult: 1
    decay_mult: 1
  }
  param {
    lr_mult: 2
    decay_mult: 0
  }
  convolution_param {
    num_output: 512
    pad: 1
    kernel_size: 3
  }
}
layer {
  name: "relu5_1"
  type: "ReLU"
  bottom: "conv5_1"
  top: "conv5_1"
}
layer {
  name: "conv5_2"
  type: "Convolution"
  bottom: "conv5_1"
  top: "conv5_2"
  param {
    lr_mult: 1
    decay_mult: 1
  }
  param {
    lr_mult: 2
    decay_mult: 0
  }
  convolution_param {
    num_output: 512
    pad: 1
    kernel_size: 3
  }
}
layer {
  name: "relu5_2"
  type: "ReLU"
  bottom: "conv5_2"
  top: "conv5_2"
}
layer {
  name: "conv5_3"
  type: "Convolution"
  bottom: "conv5_2"
  top: "conv5_3"
  param {
    lr_mult: 1
    decay_mult: 1
  }
  param {
    lr_mult: 2
    decay_mult: 0
  }
  convolution_param {
    num_output: 512
    pad: 1
    kernel_size: 3
  }
}
layer {
  name: "relu5_3"
  type: "ReLU"
  bottom: "conv5_3"
  top: "conv5_3"
}
layer {
  name: "rpn_conv/3x3"
  type: "Convolution"
  bottom: "conv5_3"
  top: "rpn/output"
  param {
    lr_mult: 1
    decay_mult: 1
  }
  param {
    lr_mult: 2
    decay_mult: 0
  }
  convolution_param {
    num_output: 512
    pad: 1
    kernel_size: 3
    stride: 1
    weight_filler {
      type: "gaussian"
      std: 0.01
    }
    bias_filler {
      type: "constant"
      value: 0
    }
  }
}
layer {
  name: "rpn_relu/3x3"
  type: "ReLU"
  bottom: "rpn/output"
  top: "rpn/output"
}
layer {
  name: "rpn_cls_score"
  type: "Convolution"
  bottom: "rpn/output"
  top: "rpn_cls_score"
  param {
    lr_mult: 1
    decay_mult: 1
  }
  param {
    lr_mult: 2
    decay_mult: 0
  }
  convolution_param {
    num_output: 18
    pad: 0
    kernel_size: 1
    stride: 1
    weight_filler {
      type: "gaussian"
      std: 0.01
    }
    bias_filler {
      type: "constant"
      value: 0
    }
  }
}
layer {
  name: "rpn_bbox_pred"
  type: "Convolution"
  bottom: "rpn/output"
  top: "rpn_bbox_pred"
  param {
    lr_mult: 1
    decay_mult: 1
  }
  param {
    lr_mult: 2
    decay_mult: 0
  }
  convolution_param {
    num_output: 36
    pad: 0
    kernel_size: 1
    stride: 1
    weight_filler {
      type: "gaussian"
      std: 0.01
    }
    bias_filler {
      type: "constant"
      value: 0
    }
  }
}
layer {
  name: "rpn_cls_score_reshape"
  type: "Reshape"
  bottom: "rpn_cls_score"
  top: "rpn_cls_score_reshape"
  reshape_param {
    shape {
      dim: 0
      dim: 2
      dim: -1
      dim: 0
    }
  }
}
layer {
  name: "rpn_cls_prob"
  type: "Softmax"
  bottom: "rpn_cls_score_reshape"
  top: "rpn_cls_prob"
}
layer {
  name: "rpn_cls_prob_reshape"
  type: "Reshape"
  bottom: "rpn_cls_prob"
  top: "rpn_cls_prob_reshape"
  reshape_param {
    shape {
      dim: 0
      dim: 18
      dim: -1
      dim: 0
    }
  }
}
layer {
  name: "proposal"
  type: "Python"
  bottom: "rpn_cls_prob_reshape"
  bottom: "rpn_bbox_pred"
  bottom: "im_info"
  top: "rois"
  python_param {
    module: "rpn.proposal_layer"
    layer: "ProposalLayer"
    param_str: "\'feat_stride\': 16"
  }
}
layer {
  name: "roi_pool5"
  type: "ROIPooling"
  bottom: "conv5_3"
  bottom: "rois"
  top: "pool5"
  roi_pooling_param {
    pooled_h: 7
    pooled_w: 7
    spatial_scale: 0.0625
  }
}
layer {
  name: "fc6"
  type: "InnerProduct"
  bottom: "pool5"
  top: "fc6"
  param {
    lr_mult: 1
    decay_mult: 1
  }
  param {
    lr_mult: 2
    decay_mult: 0
  }
  inner_product_param {
    num_output: 4096
  }
}
layer {
  name: "relu6"
  type: "ReLU"
  bottom: "fc6"
  top: "fc6"
}
layer {
  name: "drop6"
  type: "Dropout"
  bottom: "fc6"
  top: "fc6"
  dropout_param {
    dropout_ratio: 0.5
  }
}
layer {
  name: "fc7"
  type: "InnerProduct"
  bottom: "fc6"
  top: "fc7"
  param {
    lr_mult: 1
    decay_mult: 1
  }
  param {
    lr_mult: 2
    decay_mult: 0
  }
  inner_product_param {
    num_output: 4096
  }
}
layer {
  name: "relu7"
  type: "ReLU"
  bottom: "fc7"
  top: "fc7"
}
layer {
  name: "drop7"
  type: "Dropout"
  bottom: "fc7"
  top: "fc7"
  dropout_param {
    dropout_ratio: 0.5
  }
}
layer {
  name: "cls_score"
  type: "InnerProduct"
  bottom: "fc7"
  top: "cls_score"
  param {
    lr_mult: 1
    decay_mult: 1
  }
  param {
    lr_mult: 2
    decay_mult: 0
  }
  inner_product_param {
    num_output: 21
    weight_filler {
      type: "gaussian"
      std: 0.01
    }
    bias_filler {
      type: "constant"
      value: 0
    }
  }
}
layer {
  name: "bbox_pred"
  type: "InnerProduct"
  bottom: "fc7"
  top: "bbox_pred"
  param {
    lr_mult: 1
    decay_mult: 1
  }
  param {
    lr_mult: 2
    decay_mult: 0
  }
  inner_product_param {
    num_output: 84
    weight_filler {
      type: "gaussian"
      std: 0.001
    }
    bias_filler {
      type: "constant"
      value: 0
    }
  }
}
layer {
  name: "cls_prob"
  type: "Softmax"
  bottom: "cls_score"
  top: "cls_prob"
}
I0529 13:42:43.433493 17660 net.cpp:413] Input 0 -> data
I0529 13:42:43.454138 17660 net.cpp:413] Input 1 -> im_info
I0529 13:42:43.454223 17660 layer_factory.hpp:77] Creating layer conv1_1
I0529 13:42:43.454257 17660 net.cpp:106] Creating Layer conv1_1
I0529 13:42:43.454263 17660 net.cpp:454] conv1_1 <- data
I0529 13:42:43.454272 17660 net.cpp:411] conv1_1 -> conv1_1
I0529 13:42:43.457173 17660 net.cpp:150] Setting up conv1_1
I0529 13:42:43.457216 17660 net.cpp:157] Top shape: 1 64 224 224 (3211264)
I0529 13:42:43.457221 17660 net.cpp:165] Memory required for data: 12845056
I0529 13:42:43.457242 17660 layer_factory.hpp:77] Creating layer relu1_1
I0529 13:42:43.457264 17660 net.cpp:106] Creating Layer relu1_1
I0529 13:42:43.457269 17660 net.cpp:454] relu1_1 <- conv1_1
I0529 13:42:43.457278 17660 net.cpp:397] relu1_1 -> conv1_1 (in-place)
I0529 13:42:43.457301 17660 net.cpp:150] Setting up relu1_1
I0529 13:42:43.457307 17660 net.cpp:157] Top shape: 1 64 224 224 (3211264)
I0529 13:42:43.457312 17660 net.cpp:165] Memory required for data: 25690112
I0529 13:42:43.457316 17660 layer_factory.hpp:77] Creating layer conv1_2
I0529 13:42:43.457327 17660 net.cpp:106] Creating Layer conv1_2
I0529 13:42:43.457332 17660 net.cpp:454] conv1_2 <- conv1_1
I0529 13:42:43.457340 17660 net.cpp:411] conv1_2 -> conv1_2
I0529 13:42:43.457679 17660 net.cpp:150] Setting up conv1_2
I0529 13:42:43.457692 17660 net.cpp:157] Top shape: 1 64 224 224 (3211264)
I0529 13:42:43.457697 17660 net.cpp:165] Memory required for data: 38535168
I0529 13:42:43.457707 17660 layer_factory.hpp:77] Creating layer relu1_2
I0529 13:42:43.457715 17660 net.cpp:106] Creating Layer relu1_2
I0529 13:42:43.457720 17660 net.cpp:454] relu1_2 <- conv1_2
I0529 13:42:43.457727 17660 net.cpp:397] relu1_2 -> conv1_2 (in-place)
I0529 13:42:43.457734 17660 net.cpp:150] Setting up relu1_2
I0529 13:42:43.457741 17660 net.cpp:157] Top shape: 1 64 224 224 (3211264)
I0529 13:42:43.457744 17660 net.cpp:165] Memory required for data: 51380224
I0529 13:42:43.457749 17660 layer_factory.hpp:77] Creating layer pool1
I0529 13:42:43.457758 17660 net.cpp:106] Creating Layer pool1
I0529 13:42:43.457763 17660 net.cpp:454] pool1 <- conv1_2
I0529 13:42:43.457770 17660 net.cpp:411] pool1 -> pool1
I0529 13:42:43.457820 17660 net.cpp:150] Setting up pool1
I0529 13:42:43.457829 17660 net.cpp:157] Top shape: 1 64 112 112 (802816)
I0529 13:42:43.457834 17660 net.cpp:165] Memory required for data: 54591488
I0529 13:42:43.457839 17660 layer_factory.hpp:77] Creating layer conv2_1
I0529 13:42:43.457849 17660 net.cpp:106] Creating Layer conv2_1
I0529 13:42:43.457854 17660 net.cpp:454] conv2_1 <- pool1
I0529 13:42:43.457861 17660 net.cpp:411] conv2_1 -> conv2_1
I0529 13:42:43.460778 17660 net.cpp:150] Setting up conv2_1
I0529 13:42:43.460799 17660 net.cpp:157] Top shape: 1 128 112 112 (1605632)
I0529 13:42:43.460805 17660 net.cpp:165] Memory required for data: 61014016
I0529 13:42:43.460819 17660 layer_factory.hpp:77] Creating layer relu2_1
I0529 13:42:43.460829 17660 net.cpp:106] Creating Layer relu2_1
I0529 13:42:43.460834 17660 net.cpp:454] relu2_1 <- conv2_1
I0529 13:42:43.460841 17660 net.cpp:397] relu2_1 -> conv2_1 (in-place)
I0529 13:42:43.460850 17660 net.cpp:150] Setting up relu2_1
I0529 13:42:43.460856 17660 net.cpp:157] Top shape: 1 128 112 112 (1605632)
I0529 13:42:43.460860 17660 net.cpp:165] Memory required for data: 67436544
I0529 13:42:43.460865 17660 layer_factory.hpp:77] Creating layer conv2_2
I0529 13:42:43.460876 17660 net.cpp:106] Creating Layer conv2_2
I0529 13:42:43.460881 17660 net.cpp:454] conv2_2 <- conv2_1
I0529 13:42:43.460888 17660 net.cpp:411] conv2_2 -> conv2_2
I0529 13:42:43.461292 17660 net.cpp:150] Setting up conv2_2
I0529 13:42:43.461305 17660 net.cpp:157] Top shape: 1 128 112 112 (1605632)
I0529 13:42:43.461309 17660 net.cpp:165] Memory required for data: 73859072
I0529 13:42:43.461318 17660 layer_factory.hpp:77] Creating layer relu2_2
I0529 13:42:43.461328 17660 net.cpp:106] Creating Layer relu2_2
I0529 13:42:43.461331 17660 net.cpp:454] relu2_2 <- conv2_2
I0529 13:42:43.461339 17660 net.cpp:397] relu2_2 -> conv2_2 (in-place)
I0529 13:42:43.461346 17660 net.cpp:150] Setting up relu2_2
I0529 13:42:43.461352 17660 net.cpp:157] Top shape: 1 128 112 112 (1605632)
I0529 13:42:43.461356 17660 net.cpp:165] Memory required for data: 80281600
I0529 13:42:43.461361 17660 layer_factory.hpp:77] Creating layer pool2
I0529 13:42:43.461369 17660 net.cpp:106] Creating Layer pool2
I0529 13:42:43.461374 17660 net.cpp:454] pool2 <- conv2_2
I0529 13:42:43.461380 17660 net.cpp:411] pool2 -> pool2
I0529 13:42:43.461423 17660 net.cpp:150] Setting up pool2
I0529 13:42:43.461432 17660 net.cpp:157] Top shape: 1 128 56 56 (401408)
I0529 13:42:43.461437 17660 net.cpp:165] Memory required for data: 81887232
I0529 13:42:43.461441 17660 layer_factory.hpp:77] Creating layer conv3_1
I0529 13:42:43.461452 17660 net.cpp:106] Creating Layer conv3_1
I0529 13:42:43.461457 17660 net.cpp:454] conv3_1 <- pool2
I0529 13:42:43.461464 17660 net.cpp:411] conv3_1 -> conv3_1
I0529 13:42:43.462003 17660 net.cpp:150] Setting up conv3_1
I0529 13:42:43.462014 17660 net.cpp:157] Top shape: 1 256 56 56 (802816)
I0529 13:42:43.462019 17660 net.cpp:165] Memory required for data: 85098496
I0529 13:42:43.462043 17660 layer_factory.hpp:77] Creating layer relu3_1
I0529 13:42:43.462054 17660 net.cpp:106] Creating Layer relu3_1
I0529 13:42:43.462057 17660 net.cpp:454] relu3_1 <- conv3_1
I0529 13:42:43.462065 17660 net.cpp:397] relu3_1 -> conv3_1 (in-place)
I0529 13:42:43.462072 17660 net.cpp:150] Setting up relu3_1
I0529 13:42:43.462079 17660 net.cpp:157] Top shape: 1 256 56 56 (802816)
I0529 13:42:43.462082 17660 net.cpp:165] Memory required for data: 88309760
I0529 13:42:43.462086 17660 layer_factory.hpp:77] Creating layer conv3_2
I0529 13:42:43.462096 17660 net.cpp:106] Creating Layer conv3_2
I0529 13:42:43.462100 17660 net.cpp:454] conv3_2 <- conv3_1
I0529 13:42:43.462108 17660 net.cpp:411] conv3_2 -> conv3_2
I0529 13:42:43.464391 17660 net.cpp:150] Setting up conv3_2
I0529 13:42:43.464412 17660 net.cpp:157] Top shape: 1 256 56 56 (802816)
I0529 13:42:43.464417 17660 net.cpp:165] Memory required for data: 91521024
I0529 13:42:43.464427 17660 layer_factory.hpp:77] Creating layer relu3_2
I0529 13:42:43.464448 17660 net.cpp:106] Creating Layer relu3_2
I0529 13:42:43.464454 17660 net.cpp:454] relu3_2 <- conv3_2
I0529 13:42:43.464462 17660 net.cpp:397] relu3_2 -> conv3_2 (in-place)
I0529 13:42:43.464470 17660 net.cpp:150] Setting up relu3_2
I0529 13:42:43.464476 17660 net.cpp:157] Top shape: 1 256 56 56 (802816)
I0529 13:42:43.464481 17660 net.cpp:165] Memory required for data: 94732288
I0529 13:42:43.464485 17660 layer_factory.hpp:77] Creating layer conv3_3
I0529 13:42:43.464496 17660 net.cpp:106] Creating Layer conv3_3
I0529 13:42:43.464501 17660 net.cpp:454] conv3_3 <- conv3_2
I0529 13:42:43.464509 17660 net.cpp:411] conv3_3 -> conv3_3
I0529 13:42:43.466789 17660 net.cpp:150] Setting up conv3_3
I0529 13:42:43.466805 17660 net.cpp:157] Top shape: 1 256 56 56 (802816)
I0529 13:42:43.466811 17660 net.cpp:165] Memory required for data: 97943552
I0529 13:42:43.466840 17660 layer_factory.hpp:77] Creating layer relu3_3
I0529 13:42:43.466861 17660 net.cpp:106] Creating Layer relu3_3
I0529 13:42:43.466866 17660 net.cpp:454] relu3_3 <- conv3_3
I0529 13:42:43.466883 17660 net.cpp:397] relu3_3 -> conv3_3 (in-place)
I0529 13:42:43.466892 17660 net.cpp:150] Setting up relu3_3
I0529 13:42:43.466897 17660 net.cpp:157] Top shape: 1 256 56 56 (802816)
I0529 13:42:43.466902 17660 net.cpp:165] Memory required for data: 101154816
I0529 13:42:43.466905 17660 layer_factory.hpp:77] Creating layer pool3
I0529 13:42:43.466915 17660 net.cpp:106] Creating Layer pool3
I0529 13:42:43.466922 17660 net.cpp:454] pool3 <- conv3_3
I0529 13:42:43.466929 17660 net.cpp:411] pool3 -> pool3
I0529 13:42:43.466974 17660 net.cpp:150] Setting up pool3
I0529 13:42:43.466984 17660 net.cpp:157] Top shape: 1 256 28 28 (200704)
I0529 13:42:43.466987 17660 net.cpp:165] Memory required for data: 101957632
I0529 13:42:43.466992 17660 layer_factory.hpp:77] Creating layer conv4_1
I0529 13:42:43.467003 17660 net.cpp:106] Creating Layer conv4_1
I0529 13:42:43.467007 17660 net.cpp:454] conv4_1 <- pool3
I0529 13:42:43.467016 17660 net.cpp:411] conv4_1 -> conv4_1
I0529 13:42:43.472092 17660 net.cpp:150] Setting up conv4_1
I0529 13:42:43.472115 17660 net.cpp:157] Top shape: 1 512 28 28 (401408)
I0529 13:42:43.472121 17660 net.cpp:165] Memory required for data: 103563264
I0529 13:42:43.472131 17660 layer_factory.hpp:77] Creating layer relu4_1
I0529 13:42:43.472153 17660 net.cpp:106] Creating Layer relu4_1
I0529 13:42:43.472158 17660 net.cpp:454] relu4_1 <- conv4_1
I0529 13:42:43.472167 17660 net.cpp:397] relu4_1 -> conv4_1 (in-place)
I0529 13:42:43.472177 17660 net.cpp:150] Setting up relu4_1
I0529 13:42:43.472182 17660 net.cpp:157] Top shape: 1 512 28 28 (401408)
I0529 13:42:43.472187 17660 net.cpp:165] Memory required for data: 105168896
I0529 13:42:43.472192 17660 layer_factory.hpp:77] Creating layer conv4_2
I0529 13:42:43.472203 17660 net.cpp:106] Creating Layer conv4_2
I0529 13:42:43.472210 17660 net.cpp:454] conv4_2 <- conv4_1
I0529 13:42:43.472218 17660 net.cpp:411] conv4_2 -> conv4_2
I0529 13:42:43.479590 17660 net.cpp:150] Setting up conv4_2
I0529 13:42:43.479624 17660 net.cpp:157] Top shape: 1 512 28 28 (401408)
I0529 13:42:43.479630 17660 net.cpp:165] Memory required for data: 106774528
I0529 13:42:43.479662 17660 layer_factory.hpp:77] Creating layer relu4_2
I0529 13:42:43.479676 17660 net.cpp:106] Creating Layer relu4_2
I0529 13:42:43.479682 17660 net.cpp:454] relu4_2 <- conv4_2
I0529 13:42:43.479691 17660 net.cpp:397] relu4_2 -> conv4_2 (in-place)
I0529 13:42:43.479701 17660 net.cpp:150] Setting up relu4_2
I0529 13:42:43.479707 17660 net.cpp:157] Top shape: 1 512 28 28 (401408)
I0529 13:42:43.479710 17660 net.cpp:165] Memory required for data: 108380160
I0529 13:42:43.479714 17660 layer_factory.hpp:77] Creating layer conv4_3
I0529 13:42:43.479725 17660 net.cpp:106] Creating Layer conv4_3
I0529 13:42:43.479732 17660 net.cpp:454] conv4_3 <- conv4_2
I0529 13:42:43.479740 17660 net.cpp:411] conv4_3 -> conv4_3
I0529 13:42:43.488737 17660 net.cpp:150] Setting up conv4_3
I0529 13:42:43.488791 17660 net.cpp:157] Top shape: 1 512 28 28 (401408)
I0529 13:42:43.488797 17660 net.cpp:165] Memory required for data: 109985792
I0529 13:42:43.488812 17660 layer_factory.hpp:77] Creating layer relu4_3
I0529 13:42:43.488839 17660 net.cpp:106] Creating Layer relu4_3
I0529 13:42:43.488847 17660 net.cpp:454] relu4_3 <- conv4_3
I0529 13:42:43.488857 17660 net.cpp:397] relu4_3 -> conv4_3 (in-place)
I0529 13:42:43.488870 17660 net.cpp:150] Setting up relu4_3
I0529 13:42:43.488878 17660 net.cpp:157] Top shape: 1 512 28 28 (401408)
I0529 13:42:43.488883 17660 net.cpp:165] Memory required for data: 111591424
I0529 13:42:43.488888 17660 layer_factory.hpp:77] Creating layer pool4
I0529 13:42:43.488898 17660 net.cpp:106] Creating Layer pool4
I0529 13:42:43.488903 17660 net.cpp:454] pool4 <- conv4_3
I0529 13:42:43.488910 17660 net.cpp:411] pool4 -> pool4
I0529 13:42:43.488960 17660 net.cpp:150] Setting up pool4
I0529 13:42:43.488970 17660 net.cpp:157] Top shape: 1 512 14 14 (100352)
I0529 13:42:43.488976 17660 net.cpp:165] Memory required for data: 111992832
I0529 13:42:43.488979 17660 layer_factory.hpp:77] Creating layer conv5_1
I0529 13:42:43.488994 17660 net.cpp:106] Creating Layer conv5_1
I0529 13:42:43.489001 17660 net.cpp:454] conv5_1 <- pool4
I0529 13:42:43.489009 17660 net.cpp:411] conv5_1 -> conv5_1
I0529 13:42:43.496655 17660 net.cpp:150] Setting up conv5_1
I0529 13:42:43.496685 17660 net.cpp:157] Top shape: 1 512 14 14 (100352)
I0529 13:42:43.496690 17660 net.cpp:165] Memory required for data: 112394240
I0529 13:42:43.496702 17660 layer_factory.hpp:77] Creating layer relu5_1
I0529 13:42:43.496726 17660 net.cpp:106] Creating Layer relu5_1
I0529 13:42:43.496732 17660 net.cpp:454] relu5_1 <- conv5_1
I0529 13:42:43.496742 17660 net.cpp:397] relu5_1 -> conv5_1 (in-place)
I0529 13:42:43.496752 17660 net.cpp:150] Setting up relu5_1
I0529 13:42:43.496759 17660 net.cpp:157] Top shape: 1 512 14 14 (100352)
I0529 13:42:43.496763 17660 net.cpp:165] Memory required for data: 112795648
I0529 13:42:43.496768 17660 layer_factory.hpp:77] Creating layer conv5_2
I0529 13:42:43.496781 17660 net.cpp:106] Creating Layer conv5_2
I0529 13:42:43.496785 17660 net.cpp:454] conv5_2 <- conv5_1
I0529 13:42:43.496793 17660 net.cpp:411] conv5_2 -> conv5_2
I0529 13:42:43.503721 17660 net.cpp:150] Setting up conv5_2
I0529 13:42:43.503744 17660 net.cpp:157] Top shape: 1 512 14 14 (100352)
I0529 13:42:43.503749 17660 net.cpp:165] Memory required for data: 113197056
I0529 13:42:43.503758 17660 layer_factory.hpp:77] Creating layer relu5_2
I0529 13:42:43.503780 17660 net.cpp:106] Creating Layer relu5_2
I0529 13:42:43.503787 17660 net.cpp:454] relu5_2 <- conv5_2
I0529 13:42:43.503793 17660 net.cpp:397] relu5_2 -> conv5_2 (in-place)
I0529 13:42:43.503803 17660 net.cpp:150] Setting up relu5_2
I0529 13:42:43.503808 17660 net.cpp:157] Top shape: 1 512 14 14 (100352)
I0529 13:42:43.503813 17660 net.cpp:165] Memory required for data: 113598464
I0529 13:42:43.503816 17660 layer_factory.hpp:77] Creating layer conv5_3
I0529 13:42:43.503828 17660 net.cpp:106] Creating Layer conv5_3
I0529 13:42:43.503834 17660 net.cpp:454] conv5_3 <- conv5_2
I0529 13:42:43.503842 17660 net.cpp:411] conv5_3 -> conv5_3
I0529 13:42:43.510756 17660 net.cpp:150] Setting up conv5_3
I0529 13:42:43.510781 17660 net.cpp:157] Top shape: 1 512 14 14 (100352)
I0529 13:42:43.510785 17660 net.cpp:165] Memory required for data: 113999872
I0529 13:42:43.510795 17660 layer_factory.hpp:77] Creating layer relu5_3
I0529 13:42:43.510816 17660 net.cpp:106] Creating Layer relu5_3
I0529 13:42:43.510831 17660 net.cpp:454] relu5_3 <- conv5_3
I0529 13:42:43.510839 17660 net.cpp:397] relu5_3 -> conv5_3 (in-place)
I0529 13:42:43.510848 17660 net.cpp:150] Setting up relu5_3
I0529 13:42:43.510854 17660 net.cpp:157] Top shape: 1 512 14 14 (100352)
I0529 13:42:43.510859 17660 net.cpp:165] Memory required for data: 114401280
I0529 13:42:43.510862 17660 layer_factory.hpp:77] Creating layer conv5_3_relu5_3_0_split
I0529 13:42:43.510880 17660 net.cpp:106] Creating Layer conv5_3_relu5_3_0_split
I0529 13:42:43.510885 17660 net.cpp:454] conv5_3_relu5_3_0_split <- conv5_3
I0529 13:42:43.510892 17660 net.cpp:411] conv5_3_relu5_3_0_split -> conv5_3_relu5_3_0_split_0
I0529 13:42:43.510901 17660 net.cpp:411] conv5_3_relu5_3_0_split -> conv5_3_relu5_3_0_split_1
I0529 13:42:43.510948 17660 net.cpp:150] Setting up conv5_3_relu5_3_0_split
I0529 13:42:43.510957 17660 net.cpp:157] Top shape: 1 512 14 14 (100352)
I0529 13:42:43.510963 17660 net.cpp:157] Top shape: 1 512 14 14 (100352)
I0529 13:42:43.510967 17660 net.cpp:165] Memory required for data: 115204096
I0529 13:42:43.510972 17660 layer_factory.hpp:77] Creating layer rpn_conv/3x3
I0529 13:42:43.510993 17660 net.cpp:106] Creating Layer rpn_conv/3x3
I0529 13:42:43.511000 17660 net.cpp:454] rpn_conv/3x3 <- conv5_3_relu5_3_0_split_0
I0529 13:42:43.511010 17660 net.cpp:411] rpn_conv/3x3 -> rpn/output
I0529 13:42:43.602407 17660 net.cpp:150] Setting up rpn_conv/3x3
I0529 13:42:43.602459 17660 net.cpp:157] Top shape: 1 512 14 14 (100352)
I0529 13:42:43.602464 17660 net.cpp:165] Memory required for data: 115605504
I0529 13:42:43.602475 17660 layer_factory.hpp:77] Creating layer rpn_relu/3x3
I0529 13:42:43.602494 17660 net.cpp:106] Creating Layer rpn_relu/3x3
I0529 13:42:43.602499 17660 net.cpp:454] rpn_relu/3x3 <- rpn/output
I0529 13:42:43.602506 17660 net.cpp:397] rpn_relu/3x3 -> rpn/output (in-place)
I0529 13:42:43.602532 17660 net.cpp:150] Setting up rpn_relu/3x3
I0529 13:42:43.602536 17660 net.cpp:157] Top shape: 1 512 14 14 (100352)
I0529 13:42:43.602540 17660 net.cpp:165] Memory required for data: 116006912
I0529 13:42:43.602543 17660 layer_factory.hpp:77] Creating layer rpn/output_rpn_relu/3x3_0_split
I0529 13:42:43.602551 17660 net.cpp:106] Creating Layer rpn/output_rpn_relu/3x3_0_split
I0529 13:42:43.602555 17660 net.cpp:454] rpn/output_rpn_relu/3x3_0_split <- rpn/output
I0529 13:42:43.602576 17660 net.cpp:411] rpn/output_rpn_relu/3x3_0_split -> rpn/output_rpn_relu/3x3_0_split_0
I0529 13:42:43.602583 17660 net.cpp:411] rpn/output_rpn_relu/3x3_0_split -> rpn/output_rpn_relu/3x3_0_split_1
I0529 13:42:43.602629 17660 net.cpp:150] Setting up rpn/output_rpn_relu/3x3_0_split
I0529 13:42:43.602638 17660 net.cpp:157] Top shape: 1 512 14 14 (100352)
I0529 13:42:43.602643 17660 net.cpp:157] Top shape: 1 512 14 14 (100352)
I0529 13:42:43.602646 17660 net.cpp:165] Memory required for data: 116809728
I0529 13:42:43.602650 17660 layer_factory.hpp:77] Creating layer rpn_cls_score
I0529 13:42:43.602663 17660 net.cpp:106] Creating Layer rpn_cls_score
I0529 13:42:43.602668 17660 net.cpp:454] rpn_cls_score <- rpn/output_rpn_relu/3x3_0_split_0
I0529 13:42:43.602674 17660 net.cpp:411] rpn_cls_score -> rpn_cls_score
I0529 13:42:43.603302 17660 net.cpp:150] Setting up rpn_cls_score
I0529 13:42:43.603313 17660 net.cpp:157] Top shape: 1 18 14 14 (3528)
I0529 13:42:43.603319 17660 net.cpp:165] Memory required for data: 116823840
I0529 13:42:43.603327 17660 layer_factory.hpp:77] Creating layer rpn_bbox_pred
I0529 13:42:43.603338 17660 net.cpp:106] Creating Layer rpn_bbox_pred
I0529 13:42:43.603343 17660 net.cpp:454] rpn_bbox_pred <- rpn/output_rpn_relu/3x3_0_split_1
I0529 13:42:43.603351 17660 net.cpp:411] rpn_bbox_pred -> rpn_bbox_pred
I0529 13:42:43.604270 17660 net.cpp:150] Setting up rpn_bbox_pred
I0529 13:42:43.604279 17660 net.cpp:157] Top shape: 1 36 14 14 (7056)
I0529 13:42:43.604298 17660 net.cpp:165] Memory required for data: 116852064
I0529 13:42:43.604305 17660 layer_factory.hpp:77] Creating layer rpn_cls_score_reshape
I0529 13:42:43.604321 17660 net.cpp:106] Creating Layer rpn_cls_score_reshape
I0529 13:42:43.604326 17660 net.cpp:454] rpn_cls_score_reshape <- rpn_cls_score
I0529 13:42:43.604332 17660 net.cpp:411] rpn_cls_score_reshape -> rpn_cls_score_reshape
I0529 13:42:43.604373 17660 net.cpp:150] Setting up rpn_cls_score_reshape
I0529 13:42:43.604382 17660 net.cpp:157] Top shape: 1 2 126 14 (3528)
I0529 13:42:43.604385 17660 net.cpp:165] Memory required for data: 116866176
I0529 13:42:43.604389 17660 layer_factory.hpp:77] Creating layer rpn_cls_prob
I0529 13:42:43.604398 17660 net.cpp:106] Creating Layer rpn_cls_prob
I0529 13:42:43.604403 17660 net.cpp:454] rpn_cls_prob <- rpn_cls_score_reshape
I0529 13:42:43.604408 17660 net.cpp:411] rpn_cls_prob -> rpn_cls_prob
I0529 13:42:43.604466 17660 net.cpp:150] Setting up rpn_cls_prob
I0529 13:42:43.604475 17660 net.cpp:157] Top shape: 1 2 126 14 (3528)
I0529 13:42:43.604478 17660 net.cpp:165] Memory required for data: 116880288
I0529 13:42:43.604482 17660 layer_factory.hpp:77] Creating layer rpn_cls_prob_reshape
I0529 13:42:43.604490 17660 net.cpp:106] Creating Layer rpn_cls_prob_reshape
I0529 13:42:43.604493 17660 net.cpp:454] rpn_cls_prob_reshape <- rpn_cls_prob
I0529 13:42:43.604501 17660 net.cpp:411] rpn_cls_prob_reshape -> rpn_cls_prob_reshape
I0529 13:42:43.604523 17660 net.cpp:150] Setting up rpn_cls_prob_reshape
I0529 13:42:43.604531 17660 net.cpp:157] Top shape: 1 18 14 14 (3528)
I0529 13:42:43.604534 17660 net.cpp:165] Memory required for data: 116894400
I0529 13:42:43.604553 17660 layer_factory.hpp:77] Creating layer proposal
I0529 13:42:43.605123 17660 net.cpp:106] Creating Layer proposal
I0529 13:42:43.605137 17660 net.cpp:454] proposal <- rpn_cls_prob_reshape
I0529 13:42:43.605159 17660 net.cpp:454] proposal <- rpn_bbox_pred
I0529 13:42:43.605165 17660 net.cpp:454] proposal <- im_info
I0529 13:42:43.605188 17660 net.cpp:411] proposal -> rois
I0529 13:42:43.606067 17660 net.cpp:150] Setting up proposal
I0529 13:42:43.606083 17660 net.cpp:157] Top shape: 1 5 (5)
I0529 13:42:43.606088 17660 net.cpp:165] Memory required for data: 116894420
I0529 13:42:43.606092 17660 layer_factory.hpp:77] Creating layer roi_pool5
I0529 13:42:43.606099 17660 net.cpp:106] Creating Layer roi_pool5
I0529 13:42:43.606114 17660 net.cpp:454] roi_pool5 <- conv5_3_relu5_3_0_split_1
I0529 13:42:43.606120 17660 net.cpp:454] roi_pool5 <- rois
I0529 13:42:43.606127 17660 net.cpp:411] roi_pool5 -> pool5
I0529 13:42:43.606149 17660 roi_pooling_layer.cpp:30] Spatial scale: 0.0625
I0529 13:42:43.606201 17660 net.cpp:150] Setting up roi_pool5
I0529 13:42:43.606209 17660 net.cpp:157] Top shape: 1 512 7 7 (25088)
I0529 13:42:43.606214 17660 net.cpp:165] Memory required for data: 116994772
I0529 13:42:43.606217 17660 layer_factory.hpp:77] Creating layer fc6
I0529 13:42:43.606231 17660 net.cpp:106] Creating Layer fc6
I0529 13:42:43.606235 17660 net.cpp:454] fc6 <- pool5
I0529 13:42:43.606242 17660 net.cpp:411] fc6 -> fc6
I0529 13:42:43.990891 17660 net.cpp:150] Setting up fc6
I0529 13:42:43.990965 17660 net.cpp:157] Top shape: 1 4096 (4096)
I0529 13:42:43.990972 17660 net.cpp:165] Memory required for data: 117011156
I0529 13:42:43.991034 17660 layer_factory.hpp:77] Creating layer relu6
I0529 13:42:43.991075 17660 net.cpp:106] Creating Layer relu6
I0529 13:42:43.991092 17660 net.cpp:454] relu6 <- fc6
I0529 13:42:43.991102 17660 net.cpp:397] relu6 -> fc6 (in-place)
I0529 13:42:43.991113 17660 net.cpp:150] Setting up relu6
I0529 13:42:43.991119 17660 net.cpp:157] Top shape: 1 4096 (4096)
I0529 13:42:43.991122 17660 net.cpp:165] Memory required for data: 117027540
I0529 13:42:43.991127 17660 layer_factory.hpp:77] Creating layer drop6
I0529 13:42:43.991142 17660 net.cpp:106] Creating Layer drop6
I0529 13:42:43.991147 17660 net.cpp:454] drop6 <- fc6
I0529 13:42:43.991152 17660 net.cpp:397] drop6 -> fc6 (in-place)
I0529 13:42:43.991181 17660 net.cpp:150] Setting up drop6
I0529 13:42:43.991189 17660 net.cpp:157] Top shape: 1 4096 (4096)
I0529 13:42:43.991194 17660 net.cpp:165] Memory required for data: 117043924
I0529 13:42:43.991197 17660 layer_factory.hpp:77] Creating layer fc7
I0529 13:42:43.991209 17660 net.cpp:106] Creating Layer fc7
I0529 13:42:43.991212 17660 net.cpp:454] fc7 <- fc6
I0529 13:42:43.991221 17660 net.cpp:411] fc7 -> fc7
I0529 13:42:44.054283 17660 net.cpp:150] Setting up fc7
I0529 13:42:44.054329 17660 net.cpp:157] Top shape: 1 4096 (4096)
I0529 13:42:44.054334 17660 net.cpp:165] Memory required for data: 117060308
I0529 13:42:44.054363 17660 layer_factory.hpp:77] Creating layer relu7
I0529 13:42:44.054378 17660 net.cpp:106] Creating Layer relu7
I0529 13:42:44.054386 17660 net.cpp:454] relu7 <- fc7
I0529 13:42:44.054409 17660 net.cpp:397] relu7 -> fc7 (in-place)
I0529 13:42:44.054422 17660 net.cpp:150] Setting up relu7
I0529 13:42:44.054427 17660 net.cpp:157] Top shape: 1 4096 (4096)
I0529 13:42:44.054430 17660 net.cpp:165] Memory required for data: 117076692
I0529 13:42:44.054433 17660 layer_factory.hpp:77] Creating layer drop7
I0529 13:42:44.054445 17660 net.cpp:106] Creating Layer drop7
I0529 13:42:44.054448 17660 net.cpp:454] drop7 <- fc7
I0529 13:42:44.054455 17660 net.cpp:397] drop7 -> fc7 (in-place)
I0529 13:42:44.054479 17660 net.cpp:150] Setting up drop7
I0529 13:42:44.054486 17660 net.cpp:157] Top shape: 1 4096 (4096)
I0529 13:42:44.054489 17660 net.cpp:165] Memory required for data: 117093076
I0529 13:42:44.054493 17660 layer_factory.hpp:77] Creating layer fc7_drop7_0_split
I0529 13:42:44.054503 17660 net.cpp:106] Creating Layer fc7_drop7_0_split
I0529 13:42:44.054507 17660 net.cpp:454] fc7_drop7_0_split <- fc7
I0529 13:42:44.054513 17660 net.cpp:411] fc7_drop7_0_split -> fc7_drop7_0_split_0
I0529 13:42:44.054519 17660 net.cpp:411] fc7_drop7_0_split -> fc7_drop7_0_split_1
I0529 13:42:44.054563 17660 net.cpp:150] Setting up fc7_drop7_0_split
I0529 13:42:44.054569 17660 net.cpp:157] Top shape: 1 4096 (4096)
I0529 13:42:44.054574 17660 net.cpp:157] Top shape: 1 4096 (4096)
I0529 13:42:44.054577 17660 net.cpp:165] Memory required for data: 117125844
I0529 13:42:44.054581 17660 layer_factory.hpp:77] Creating layer cls_score
I0529 13:42:44.054591 17660 net.cpp:106] Creating Layer cls_score
I0529 13:42:44.054595 17660 net.cpp:454] cls_score <- fc7_drop7_0_split_0
I0529 13:42:44.054601 17660 net.cpp:411] cls_score -> cls_score
I0529 13:42:44.058785 17660 net.cpp:150] Setting up cls_score
I0529 13:42:44.058802 17660 net.cpp:157] Top shape: 1 21 (21)
I0529 13:42:44.058807 17660 net.cpp:165] Memory required for data: 117125928
I0529 13:42:44.058815 17660 layer_factory.hpp:77] Creating layer bbox_pred
I0529 13:42:44.058852 17660 net.cpp:106] Creating Layer bbox_pred
I0529 13:42:44.058857 17660 net.cpp:454] bbox_pred <- fc7_drop7_0_split_1
I0529 13:42:44.058863 17660 net.cpp:411] bbox_pred -> bbox_pred
I0529 13:42:44.069173 17660 net.cpp:150] Setting up bbox_pred
I0529 13:42:44.069198 17660 net.cpp:157] Top shape: 1 84 (84)
I0529 13:42:44.069202 17660 net.cpp:165] Memory required for data: 117126264
I0529 13:42:44.069214 17660 layer_factory.hpp:77] Creating layer cls_prob
I0529 13:42:44.069242 17660 net.cpp:106] Creating Layer cls_prob
I0529 13:42:44.069248 17660 net.cpp:454] cls_prob <- cls_score
I0529 13:42:44.069254 17660 net.cpp:411] cls_prob -> cls_prob
I0529 13:42:44.069324 17660 net.cpp:150] Setting up cls_prob
I0529 13:42:44.069332 17660 net.cpp:157] Top shape: 1 21 (21)
I0529 13:42:44.069336 17660 net.cpp:165] Memory required for data: 117126348
I0529 13:42:44.069339 17660 net.cpp:228] cls_prob does not need backward computation.
I0529 13:42:44.069344 17660 net.cpp:228] bbox_pred does not need backward computation.
I0529 13:42:44.069347 17660 net.cpp:228] cls_score does not need backward computation.
I0529 13:42:44.069352 17660 net.cpp:228] fc7_drop7_0_split does not need backward computation.
…
